model.pth (torch, 379863 bytes, 6 tensors)

fc1.weight f4 [256, 109]
000000 a3 41 42 3d 09 5c bf be 0e 59 eb bd f7 bb 5c be
       0.047425877 -0.37374905 -0.11491595 -0.21556078
000010 a2 85 74 be 27 cb ad 3d 3e c3 6a bd ca 2c 89 3d
       -0.23879102 0.08486014 -0.057315104 0.06697996
000020 aa 3e 05 3d 70 57 1f be b4 68 c7 bd 7f 2c 73 3e
       0.032530464 -0.15560699 -0.097367674 0.23747443
000030 99 7a e7 3d 68 9c 92 3e e1 04 85 bd 28 55 53 be
       0.113026805 0.28634953 -0.06495071 -0.20637953
000040 2d 09 2c be 9b 41 a2 be f2 e8 42 3e aa ff af 3e
       -0.16800375 -0.31690678 0.19034174 0.34374744
000050 25 ba e0 b8 59 a0 41 be 21 c0 3a bd 34 ae 97 bc
       -0.000107158245 -0.18908824 -0.045593385 -0.018515684
000060 95 6e 14 be b7 81 1a 3e b5 2e 42 3d 7a 2b b5 3e
       -0.14495309 0.15088545 0.047407825 0.35384732
000070 5f 20 fe be fb 15 b2 3d e4 04 14 be b7 69 29 3d
       -0.49634072 0.08695599 -0.1445499 0.041360583
000080 13 d3 b8 be 45 fb 38 bb f8 9c 4a be 23 4b 49 be
       -0.36098537 -0.002822594 -0.19786441 -0.19657569
000090 85 66 d4 bd 47 ce dd bd 58 b3 c1 bd 99 3f 88 3e
       -0.103711165 -0.1083036 -0.09458035 0.2661102
0000a0 97 d4 28 3e b9 a9 16 be 16 9e b7 3e ad 27 c0 be
       0.16487347 -0.14713182 0.35862797 -0.3753027
0000b0 e9 2c 7e 3e 8f 51 c0 be f3 c5 9d be c4 e8 ad 3d
       0.2482182 -0.37562224 -0.30815086 0.08491662
0000c0 1f ba 75 be 66 df 34 be 07 d5 6c 3e d5 06 03 3e
       -0.23996781 -0.17663345 0.23128138 0.12795575
0000d0 1d 82 33 3e ef 9f 89 be 2e 9c 53 3e e4 d0 47 3e
       0.17530103 -0.26879832 0.20665047 0.19513279
0000e0 96 c0 5a 3e 18 de 8c 3e ea df 29 be dd d3 9c bc
       0.21362528 0.27513194 -0.16589323 -0.019143993
0000f0 e5 c6 1a be 13 91 81 3d 3c 60 50 3d 21 b4 c3 3e
       -0.15114935 0.06326499 0.050873026 0.38223365
000100 5d 4a df 3e 4f 0b 04 bf e8 10 93 bd a8 7c 97 3e
       0.43611422 -0.51579756 -0.07180959 0.29587293
000110 95 fa 41 be bb 14 b6 bc 0d ca c8 3d 81 57 d5 bd
       -0.18943246 -0.022226682 0.09804163 -0.10417081
000120 65 9e 9b bc 04 7f 9b bd 6f 02 a2 3e 26 d9 52 be
       -0.018996427 -0.07592586 0.31642482 -0.20590648
000130 36 de 86 3d 2c fd 78 bd 34 ab b5 bd f6 4c fe 3d
       0.06585352 -0.06078832 -0.08870545 0.12417023
000140 7b a3 40 bd 40 a2 48 be a8 96 c6 3b d4 cd 55 bd
       -0.047030907 -0.19593143 0.00606044 -0.052198246
000150 3f 35 98 bc 97 d0 94 be d5 e3 a7 3c 62 a4 8e 3e
       -0.018580077 -0.2906539 0.020494381 0.2785979
000160 1e 72 63 3d 3a 8d f6 bd 3f c7 8a be 25 c4 c1 bc
       0.055528753 -0.120386556 -0.27105138 -0.0236531
000170 03 3c 44 3e 14 7a 9e bd b0 e1 13 bf c4 1f 1f be
       0.19163518 -0.07738128 -0.57766247 -0.15539461
000180 3f b9 ca bd 40 cc ad 3e ac 7c b7 be 97 3b 2a 3e
       -0.09898614 0.33944893 -0.35837305 0.16624294
000190 49 ac 16 3e 9c 3f de 3d 8b 55 6f 3e 63 ee 69 bd
       0.14714159 0.10851976 0.23372476 -0.05711211
0001a0 a3 6d 05 3e b0 c6 05 be 03 52 3f 3e f0 0d 08 be
       0.13030104 -0.13064075 0.18683629 -0.13286567
0001b0 9a 8f a2 3c e4 6f 9d bd 34 33 0f 3c f6 aa 1c 3d
       0.019843865 -0.07687357 0.008740235 0.03824898
0001c0 10 d6 fd 3e 23 8c 14 be 9d a7 ed 3d 9d 4c 1c 3d
       0.4957738 -0.14506583 0.11604235 0.038159
0001d0 bd de 2b 3e 16 47 fd 3d 4b d8 a5 3e fc 9e c5 bd
       0.16784187 0.12367074 0.3239158 -0.096494645
0001e0 7f fd 34 3e 19 8a 0e 3e a1 6c 80 3e de a2 f0 bd
       0.17674826 0.13919868 0.25082877 -0.117498145
0001f0 14 fd f0 3c 64 cf 68 be dc 6f 64 bd 13 39 4e 3c
       0.029417552 -0.22735363 -0.05577074 0.01258685
000200 9b 60 81 be 2f 24 41 3d a4 20 73 3e 1d 65 0a 3e
       -0.25269017 0.047153648 0.2374292 0.13515134
000210 b4 16 47 3e 6a ed 8c 3e a8 eb 3d be 2b 8a 96 3c
       0.19442254 0.27524883 -0.18546927 0.01837643
000220 f9 d4 d0 3c bb e1 5c bd 2c 2d a9 be c3 78 6c 3e
       0.025492178 -0.05392621 -0.33042276 0.23092942
000230 30 34 17 bd 62 7d 3a bc 8d 91 70 bd bb 1c c2 3e
       -0.036915004 -0.011382433 -0.058732558 0.37912545
000240 ad 38 1d 3e 6f 6e 27 3d 41 d4 ac 3e 22 56 ba 3c
       0.15353651 0.040876802 0.33755687 0.02274615
000250 60 b1 a2 3d c6 0a 4f 3d 7d 94 96 bd ff a5 e5 3d
       0.07943988 0.050547384 -0.07352541 0.11213302
000260 fb 7f 46 be ef 4f 8a 3e 82 ed 43 bd e7 57 33 3e
       -0.19384758 0.2701411 -0.047833927 0.17514001
000270 72 1c 61 bd d4 db 7e be 2c d2 26 3e b2 55 fd 3d
       -0.05495877 -0.24888545 0.16291112 0.12369861
000280 1c 11 9d bd 65 a1 ca bd 6c 5a 3c be 7c 2e 22 3e
       -0.07669279 -0.09894065 -0.18393868 0.15838045
000290 77 b3 76 bc 7d b0 99 3d ba 29 bb bd 3c ca 33 bd
       -0.015057436 0.075043656 -0.09138818 -0.043894038
0002a0 bd af 5d 3c c5 10 99 be ae e2 a0 3d 7c 56 7c 3d
       0.013530669 -0.29895607 0.07855736 0.061605915
0002b0 f5 7c 50 3d 2e 11 12 3e 6a a6 c6 3e be ed 9f 3c
       0.05090042 0.14264366 0.3879884 0.019522544
0002c0 32 48 26 be 8d 50 b1 3d 46 00 a0 be 2a d3 7c be
       -0.16238478 0.08657942 -0.3125021 -0.24689928
0002d0 44 b8 58 3e 1d ae 8f bd 34 68 e1 be ca f6 21 3e
       0.21164042 -0.07015631 -0.44024813 0.15816799
0002e0 11 39 d6 be 3e e6 aa 3c 01 a7 c2 3d d1 e7 98 bd
       -0.41840413 0.020861741 0.0950451 -0.074660905
0002f0 57 47 93 bd 72 5a 71 3e d8 54 42 3e 16 76 82 be
       -0.07191341 0.23569658 0.18977678 -0.25480717
000300 76 ca a3 be f2 56 25 3e 69 a0 97 3e 3c fc ef be
       -0.31990403 0.16146448 0.2961457 -0.46872127
000310 7b 44 49 be 67 aa c0 bd 0e 53 47 bb af ac 0b 3e
       -0.1965503 -0.09407502 -0.0030414495 0.13640092
000320 e7 3b 25 3e c3 2d 14 3e 45 ef 3c 3e 8b fc 94 3d
       0.16136132 0.14470582 0.18450649 0.07274731
000330 4e e8 07 3f 55 eb 0c 3e 5e 9a 53 be 0f 3c 0e 3d
       0.53088844 0.13761647 -0.20664355 0.034725245
000340 c4 7a 64 be ab 86 d4 bc ce 28 40 be 0a fe 48 be
       -0.22312456 -0.025943121 -0.18765566 -0.19628158
000350 85 09 d5 bd e1 33 14 be 30 21 03 3f b5 a5 30 3d
       -0.10402206 -0.14472915 0.51222515 0.04312678
000360 5f 6c 8e 3d 85 ca 5c bd 91 a6 d7 be 21 93 59 be
       0.06954264 -0.053904075 -0.42119268 -0.21247531
000370 c3 8d 5c be 25 93 e3 bd 1a df 5b 3c 80 76 ac be
       -0.21538453 -0.1111205 0.013419891 -0.33684158
000380 45 b8 d0 bc 32 53 af bd 7e c1 80 be e1 5b 16 3e
       -0.025478492 -0.0856079 -0.25147623 0.14683487
000390 13 a9 51 3d d2 1b cd be a6 3d a7 be 46 82 26 bd
       0.051186632 -0.40060288 -0.32664222 -0.040651582
0003a0 58 82 22 3e 22 96 16 bd c2 85 98 be 1e 2b 4d 3e
       0.15870035 -0.03676427 -0.2978955 0.20035979
0003b0 33 7c 9e 3e 7a e6 80 3e 16 25 9d bd 0f 5a c5 bc
       0.3095413 0.2517584 -0.07673089 -0.024090795
0003c0 af 78 a7 3b 3a e2 0a 3e 9b 4e 0e 3e 03 73 dd 3d
       0.005110822 0.13562861 0.13897173 0.10812952
0003d0 54 26 de 3d 81 2d fe bc d4 e9 9a be 34 db b6 be
       0.10847154 -0.031027557 -0.30256522 -0.35714114
0003e0 15 8a 2d be c5 5a 9a 3d 05 8c 5c 3d 56 eb 3e 3d
       -0.16947205 0.07536844 0.05384447 0.046611153
0003f0 64 bd fa bd 4d 9f ed 3d a5 98 5f 3e 57 63 fb bd
       -0.12243155 0.1160265 0.21835573 -0.12274807

fc1.bias f4 [256]
000000 41 5a b0 bd cb 47 63 3d 13 5d 96 3c 6f 73 aa 3b
       -0.086109646 0.05548839 0.018354928 0.005201749
000010 9f b5 82 3d 79 70 45 bd c1 06 a4 bc c6 3b 9e 3c
       0.06382298 -0.048202965 -0.020022752 0.019315612
000020 9d 99 a2 3c df 71 c5 3c 77 90 26 be 4e 75 4c be
       0.01984864 0.02410215 -0.16266046 -0.19966623
000030 d1 e7 01 bd e6 e7 c3 bd 74 28 d7 bd 3b 98 d2 bd
       -0.031715218 -0.095657155 -0.10505763 -0.10282942
000040 73 db b9 bd 9d 75 ed bd f7 22 0e 3b 21 a0 c6 bd
       -0.0907506 -0.115946986 0.002168832 -0.09698511
000050 95 e0 b7 bd 89 7a 1a bc 43 7d b8 3b 4b a4 17 3d
       -0.089783825 -0.009428629 0.0056301667 0.037021916
000060 19 d2 03 be 9d c7 06 be bb f8 96 bd 16 e1 51 3d
       -0.12873115 -0.13162084 -0.0737166 0.05124005
000070 4d c4 56 bd 34 6c 28 be 50 0d 11 be cd 29 80 bb
       -0.0524333 -0.16447526 -0.14165235 -0.003911233
000080 81 29 2c bd 4f d2 08 bc 33 02 4c bd 4a b5 94 3d
       -0.04203177 -0.008350923 -0.049806785 0.07261141
000090 04 f0 72 bd 97 46 fd bd 6f 88 a4 bc 02 9b f3 bb
       -0.059310928 -0.123669796 -0.020084588 -0.00743425
0000a0 bf 65 9a bd 04 76 bd bd d1 75 ca bb 93 06 ba bd
       -0.07538938 -0.09251025 -0.0061785956 -0.09083285
0000b0 9d 70 c8 bd 6d a1 93 bc ee 67 40 bd 2b 98 99 3c
       -0.09787104 -0.01802131 -0.046974115 0.018749317
0000c0 c4 e6 be bd bf 91 8f bd c9 5f f5 3c 80 39 b2 bd
       -0.09321359 -0.07010221 0.0299529 -0.087023735
0000d0 06 6a 07 be 60 80 3f 3d 42 a1 7b bd 36 46 1f be
       -0.13224038 0.046753287 -0.061433084 -0.15554127
0000e0 81 b9 d3 bd 25 8a 0f bd 5a fd 48 3d ff b6 7e 3d
       -0.103381164 -0.035043854 0.04906974 0.062186237
0000f0 9e 70 9f bd 1e 93 bf 3d dd 9d 84 bd 4b 96 bd bb
       -0.07785152 0.09354232 -0.064754225 -0.0057857386
000100 d5 e9 82 bd a5 28 c6 3b 22 01 f9 bd ec da 3f 3c
       -0.06392256 0.0060473257 -0.12158419 0.01170991
000110 f1 15 a4 3c 5f 0f 2b bd bb f4 ac 3d c8 5c 0d be
       0.020029994 -0.041762706 0.08445116 -0.13804924
000120 15 c8 69 3d b3 65 2f bb b5 41 6f bd 8b 07 45 bd
       0.05707558 -0.0026763498 -0.058412272 -0.048102897
000130 e2 c8 ba bc e4 38 fd 3c 38 eb 59 bd 29 22 ab bb
       -0.022800867 0.030910917 -0.053202838 -0.005222578
000140 7b dc f0 bb 19 9f aa bd 95 05 64 3d 17 b2 7b bd
       -0.007350502 -0.08331127 0.055669386 -0.061449137
000150 38 77 9c 3b 34 d6 17 be 4f db dc bd 10 e2 10 bd
       0.004774954 -0.14827806 -0.10784017 -0.03537184
000160 d8 62 06 bd ca b5 0c 3e fe 05 aa 3c eb 6a ca bc
       -0.03280911 0.13741222 0.02075481 -0.024709186
000170 88 af a4 bd d0 47 75 bd 41 bf 47 3c 8d 3c 70 bd
       -0.080412924 -0.05988294 0.012191595 -0.058651496
000180 4f bb b4 bd b2 7f a9 bd 12 34 4a bd cc 8b 86 3d
       -0.08824789 -0.08276309 -0.049366064 0.06569633
000190 2a 5a fa bd 56 7f 4b bd 54 12 16 be 91 7e 57 bd
       -0.12224229 -0.049681984 -0.14655429 -0.052610938
0001a0 5c 6a 3e 3d ad 2c 2f bc 49 95 ba bd 78 17 94 bd
       0.04648815 -0.010691804 -0.09110505 -0.07231039
0001b0 af 00 e0 bd 07 57 2d bd cb 9b 84 bd ef d1 45 be
       -0.109376304 -0.042319324 -0.06475028 -0.19318365
0001c0 28 55 9a 3d f1 f6 7c 3c fc 42 c2 bc e2 ed 1a be
       0.075357735 0.015439735 -0.023713581 -0.15129808
0001d0 a5 71 5c 3c 66 8b f1 bc 48 a4 20 bd 66 85 b7 bd
       0.013454829 -0.029485416 -0.03921917 -0.089609906
0001e0 86 54 06 3c 7f 03 3a bd d7 0c 0b bd 59 54 ec bc
       0.008198863 -0.04541349 -0.033947792 -0.028848814
0001f0 d2 b6 0d 3c 7f e1 6c be 0d f1 81 bd d3 29 bb 3c
       0.008649545 -0.23132895 -0.06344805 0.022847092
000200 cf 88 3e bd af 12 cb bd bd 53 09 bd 0c e1 67 bd
       -0.04651719 -0.09915673 -0.033527125 -0.056611106
000210 d8 64 22 be 09 88 8c bb 0e 94 26 be b5 90 95 bd
       -0.15858781 -0.0042886776 -0.16267416 -0.07302991
000220 fe cd 9f bd 1e 95 a4 ba 94 c6 21 be ee b1 0d 3d
       -0.07802962 -0.0012556647 -0.15798408 0.034593515
000230 99 c9 54 3c d0 fb 1c 3c 30 57 1a be cf d7 2b bd
       0.012987518 0.009581521 -0.15072322 -0.041953858
000240 41 94 30 bb 35 3c 50 bd 68 0c bf bc 1b 62 fd bd
       -0.0026943835 -0.050838668 -0.023321345 -0.12372228
000250 1d 06 75 bd 11 b1 87 bd 2a ea b4 bb 59 02 c0 bd
       -0.059820283 -0.066255696 -0.0055210786 -0.09375448
000260 1e f1 c1 bd 74 46 37 be 45 6d 08 be d9 f8 40 be
       -0.094698176 -0.1789797 -0.13322933 -0.18844928
000270 ff 5c e8 bb 76 80 a7 bd ef 29 0c 3c 40 6b 22 bd
       -0.007091164 -0.08178799 0.00855492 -0.039653063
000280 e0 ba 16 bd ba 70 95 bd 80 39 89 bd a3 26 83 bc
       -0.03679931 -0.072968915 -0.067004204 -0.016009634
000290 ef 60 ac bd f6 9f 8a 3c 75 db e8 bd 8a 90 98 bd
       -0.08416926 0.016921978 -0.11369983 -0.07449444
0002a0 3a 73 3f be 23 6b 10 bd 10 a3 10 bd fc da 21 bd
       -0.18696299 -0.035258424 -0.03531176 -0.03951548
0002b0 77 e4 1d bc 6a fa a5 bd 15 f5 cd bd 51 11 f5 bd
       -0.00963699 -0.08104403 -0.10056511 -0.119661935
0002c0 91 81 de bc 80 bf 9c bd 18 7f a7 bc 76 36 82 bc
       -0.027161391 -0.07653713 -0.020446345 -0.01589511
0002d0 df 09 61 bd e3 20 0e be 00 90 46 3d ce 78 62 bc
       -0.054941054 -0.13879733 0.048477173 -0.013822747
0002e0 30 07 e7 bd e7 ee fa bc 38 f0 f5 bd 48 ea 6a bd
       -0.11280668 -0.030631496 -0.12008709 -0.057352334
0002f0 ac 6c 80 bd 59 98 bf bd 20 7a 80 bd 88 c1 e7 bd
       -0.062707275 -0.0935523 -0.062732935 -0.1131621
000300 99 94 19 bd 40 35 9e bd a5 b4 a5 3d 62 d9 85 3d
       -0.03749523 -0.077250004 0.08091096 0.06535603
000310 cd ca a3 3c 09 1f 1f bd aa 46 1a be a0 24 d1 bd
       0.019994164 -0.038847957 -0.15066019 -0.10212064
000320 b6 79 1f bd c5 27 c9 bd 5b b2 38 bd 87 7a 82 ba
       -0.038934432 -0.098220386 -0.045091968 -0.0009954729
000330 76 1c 00 be 91 cb 14 be 04 32 d9 bc 84 d8 b4 bc
       -0.12510857 -0.1453078 -0.026513107 -0.022075899
000340 ab 43 10 bd b3 8c 4c bd 4d 8f 88 bd 23 66 d3 3b
       -0.035220783 -0.04993887 -0.066679575 0.0064513846
000350 e5 60 4c bc cc a6 a8 bc e8 1b d8 bd 6a 61 71 bc
       -0.012474273 -0.020587347 -0.10552198 -0.014732698
000360 17 99 b5 bc 3a 29 b7 bd 89 ce c8 3c 31 e3 cb 3c
       -0.022167725 -0.0894341 0.024512546 0.024888607
000370 94 57 86 bb 68 29 95 bd cb 9d 78 3b fd 69 69 3d
       -0.0040997956 -0.07283288 0.0037935849 0.056985844
000380 93 e9 7d bd 69 ea 2f be 7a 00 1a be bb 6b a3 3c
       -0.06199033 -0.17179264 -0.15039244 0.01994883
000390 49 cd 5e bd c5 35 38 bd 24 d2 fa bc 4a 6c f0 bc
       -0.054394994 -0.044973154 -0.030617781 -0.029348511
0003a0 4f bc 02 3b f3 61 b9 3c 9d 2d 6d bd e2 2e 7e bd
       0.0019948666 0.022629714 -0.05790483 -0.06205643
0003b0 ac 95 23 be 2f 88 a0 ba 24 92 4a bc 96 eb 14 bd
       -0.15975064 -0.0012247617 -0.012363944 -0.036357485
0003c0 9e 75 35 be 43 d2 96 bd 91 7a 32 be a3 64 ca bd
       -0.17720649 -0.07364323 -0.17429568 -0.09882476
0003d0 94 03 79 bd e0 0d c3 bd 46 9c 12 bd 6a 73 22 be
       -0.060794428 -0.09524131 -0.035793565 -0.1586434
0003e0 5b d4 c4 bc f6 f6 8f bc e3 2b 33 bd 4d 79 80 3c
       -0.02402704 -0.017573815 -0.043743026 0.01568284
0003f0 4f 99 07 be 28 26 93 3b d8 59 c4 bd e5 d5 1a 3c
       -0.13242076 0.0044906326 -0.09587449 0.0094504105

fc2.weight f4 [256, 256]
000000 93 50 81 3d cc ae ea bd 15 eb d6 3d 7f f4 fa bc
       0.063141964 -0.11459121 0.10494057 -0.030634163
000010 a0 67 19 be 36 9a cd bd fb cd 84 3d 01 81 40 3d
       -0.14980936 -0.10039179 0.064846 0.046998028
000020 e1 4f b4 3d 7b 80 56 3b fe 5b 1b 3d dc c8 0e be
       0.08804298 0.003273039 0.037929527 -0.1394381
000030 9c b1 31 3d 80 f4 ba 3d 1e 26 0b bc e1 11 49 bd
       0.043382272 0.09128666 -0.008492975 -0.049089316
000040 ee 78 c3 3d 07 b2 07 3d 29 5b e4 3c 7e d0 37 3d
       0.0954455 0.033128764 0.0278755 0.044876568
000050 29 56 9c 3d d0 0b b0 3e 54 f4 56 bd 5f 7d 34 3e
       0.07633621 0.34384012 -0.052479103 0.1762595
000060 c1 2a ab 3d 14 40 6d 3e dc 33 95 3d d5 37 fb 3d
       0.08357764 0.23168975 0.07285282 0.122665085
000070 73 e6 f3 bd 8b 77 ac bc 50 69 45 3d eb a7 0e bc
       -0.11909189 -0.021053096 0.048196137 -0.008707027
000080 0f 49 78 3d 99 5a ea 3d 43 77 8c bd 78 36 23 3e
       0.06061655 0.114430614 -0.06858685 0.15938747
000090 0d 71 69 bd 8e e7 b5 3d 67 01 e2 3d d9 33 ec 3d
       -0.05699258 0.08882056 0.11035424 0.11533327
0000a0 51 06 21 3e d6 e7 4f 3e 58 64 1c bd 23 c0 48 bc
       0.15725066 0.20303282 -0.038181633 -0.01225284
0000b0 5d d2 23 3d 34 88 d4 3d 9e af c3 bd 64 81 0a 3e
       0.03999554 0.10377541 -0.09554981 0.13525921
0000c0 1c af c1 3d f2 9d 3f 3c 8e f5 2d 3e 84 f4 ee bc
       0.094572276 0.011695372 0.16988203 -0.029169329
0000d0 0f 46 65 3d 80 4b ec bc 8e a2 d9 3d 62 e0 9a 3c
       0.055975016 -0.028844595 0.10626708 0.018905822
0000e0 7a b9 d6 3d f4 72 26 3d 50 91 0a 3e cd 8e 84 3d
       0.104845956 0.04063697 0.13531995 0.064725496
0000f0 3e 05 a8 3c 37 94 c6 bc 02 8e ec bd 2b 0a 56 3d
       0.020510312 -0.024240596 -0.11550523 0.05225579
000100 59 69 a2 3d eb 71 ab 3c e3 bb e4 3c 75 1e dc bb
       0.0793025 0.020928344 0.027921623 -0.006717498
000110 34 76 9b bb 91 97 1f 3d b7 da f8 3c 31 2b bd 3d
       -0.0047443155 0.038962904 0.030377729 0.09236754
000120 f8 72 46 3e 03 4f 23 3e 4a 9b 89 3e d2 c9 0e 3e
       0.19379795 0.1594811 0.2687629 0.13944176
000130 e2 ce 4a bc 08 6c db 3d 47 5c 21 3c 43 28 fa 3d
       -0.012378426 0.10713965 0.009848661 0.122147106
000140 96 80 bb bd 4e 70 36 3b 4b 59 c7 bd 9c 4e fd 3c
       -0.09155385 0.0027837935 -0.09733828 0.030921273
000150 ec 93 b4 3b d5 43 cd 3d 0c 13 3e 3d 16 de ef 3d
       0.0055107977 0.100227036 0.046404883 0.117122814
000160 39 30 2c bd ad 4a 01 3e 33 66 c5 3d 91 5a d9 3d
       -0.042038176 0.12626143 0.096386336 0.10612977
000170 44 3a de 3b df 88 ab 3b fa e5 11 3d e6 bf 54 3c
       0.006781848 0.005234822 0.035619713 0.012985205
000180 e5 5f a7 3d 28 ad 6e 3d a7 53 0d 3d 71 b1 d9 3d
       0.08172587 0.058270603 0.034503605 0.106295474
000190 e0 a8 c2 3c 2c 6b a8 3c da 80 8e bc e3 ec 91 bd
       0.023762167 0.020558916 -0.017395426 -0.07125261
0001a0 ef 7e 5e bd 04 95 bb 3d 7b e5 73 bb da 41 c2 3d
       -0.054320272 0.09159282 -0.0037215638 0.094852164
0001b0 82 04 c6 3d fc 05 a4 3d 12 e0 8c 3d 9a 45 a7 be
       0.096688285 0.08008954 0.068786755 -0.3267029
0001c0 83 c8 88 3d 1e 07 63 3d ed 92 3f 3d 7b a0 70 3e
       0.066788696 0.05542671 0.04677098 0.23498718
0001d0 5a 18 af bd 2c 6c 09 3e 4a 18 b4 3c de 52 a3 3d
       -0.085495666 0.1342017 0.021984238 0.0797479
0001e0 8e c9 8c 3d 42 9d d5 3d 8e 5a c0 bd 2a df 06 be
       0.06874381 0.10430385 -0.09392272 -0.13171068
0001f0 99 cb a6 3d ba db b5 3d c1 1e dd bc 26 99 ac 3d
       0.08144302 0.088798 -0.026992204 0.08427648
000200 83 fb 4c bd ba d1 ab 3c f2 91 49 3c df 1e a9 bd
       -0.050044548 0.020974029 0.0123028625 -0.08257841
000210 e9 a6 77 3e 79 b2 f8 3c ce b0 54 bd 7c fd 06 3e
       0.24184765 0.03035854 -0.051926427 0.13182634
000220 7e d4 ba 3d da 58 24 3d 59 cd 44 3c 81 69 53 3c
       0.09122561 0.040123798 0.012011849 0.012903572
000230 ec 6f 4b 3e 3c 21 48 3d 97 74 08 3c c5 c6 8b 3d
       0.19866914 0.04885982 0.008328578 0.06825022
000240 72 54 00 3e 6c ae b3 3d bf 85 ac 3d 08 1a a8 3d
       0.12532213 0.08773503 0.084239475 0.0820809
000250 ca 27 c6 3d 56 97 e0 bc 02 75 c0 bd d5 9a 32 3d
       0.09675558 -0.027415913 -0.093973175 0.04360469
000260 98 70 4c 3e ee f6 af 3c bb 2e 3b 3d 70 de a1 3d
       0.19964826 0.02148005 0.045698863 0.07903755
000270 42 b1 2e 3d c3 a3 d3 3d 38 b1 f3 3c 3c f7 b8 3d
       0.042649515 0.103339694 0.02974759 0.09031531
000280 1b f3 97 bc 7b 7b 08 3d 57 be 3c 3d 74 a2 5a 3d
       -0.018548539 0.033320885 0.04607996 0.053377584
000290 f3 5e 44 3d 0f 98 e0 3d 93 5f 93 3c 27 d7 0e 3d
       0.047942113 0.10966503 0.01798991 0.034873154
0002a0 76 82 cf 3e f9 a5 5c bd 73 df 04 3e 96 82 c6 bc
       0.4052922 -0.05386922 0.12975864 -0.02423219
0002b0 46 cf f2 3d 81 6a 91 3d f0 93 34 3e c3 5f 4d bd
       0.118559405 0.07100392 0.17634559 -0.050140154
0002c0 d3 88 60 3d ea 43 a5 3d d4 a0 ac bc 4f e2 a1 3d
       0.054817986 0.08069594 -0.021072783 0.07904493
0002d0 c6 87 84 bd 6b 32 00 3d e1 66 22 3e 66 9a 41 3e
       -0.06471209 0.031298082 0.15859558 0.18906555
0002e0 79 6a 0a bd a7 3c 81 3d 66 1c 31 3d fa b2 1e 3e
       -0.033792946 0.06310397 0.043239973 0.15497962
0002f0 6e 41 fb 3d 9d c1 86 3d 97 8a 52 bd c0 1e 3e bd
       0.12268339 0.065798976 -0.0514017 -0.046416044
000300 70 c1 00 be 79 03 40 3b 3d 39 96 bd 51 38 d0 3d
       -0.1257379 0.0029298945 -0.07335136 0.101669915
000310 3a 0b 00 bd f9 d8 17 3e 6d 6c a3 3d a6 14 aa bd
       -0.031260706 0.14828862 0.07979665 -0.083047196
000320 04 41 b9 bd b9 86 7d 3d a5 3b 28 3e ca 18 ba 3c
       -0.09045604 0.06189606 0.16429003 0.022716898
000330 a8 5f 8d 3d f8 c2 0c 3e 17 f5 09 bd 88 ad 9b 3d
       0.069030106 0.1374625 -0.033681 0.07601458
000340 84 56 61 bd 8f f1 d9 3d ba c0 c2 3b a4 04 50 3d
       -0.05501415 0.10641777 0.005943385 0.050785676
000350 fa d1 60 3c 60 02 d0 bb 01 ad 33 3e 11 f9 7d 3d
       0.013721937 -0.0063479394 0.17546465 0.062005106
000360 a2 5e 9c bd 46 9b d8 3c ca c2 86 3c 9c 02 de bd
       -0.07635237 0.026441228 0.016450305 -0.108403414
000370 b9 74 81 3c 76 64 0c bd 8b 85 64 3d 31 75 08 3e
       0.015802728 -0.034275495 0.05579142 0.13325955
000380 31 d3 c2 3d 2f a5 d6 bd 52 81 cb 3d 9f c7 04 be
       0.09512938 -0.10480725 0.09936775 -0.12966774
000390 9c 5f 80 3c bd 65 e4 3c db 5b 9f bd c3 8a de 3c
       0.01567059 0.027880544 -0.07781192 0.027165776
0003a0 85 b4 90 3d 32 d3 a0 3d 40 55 82 3d f8 6d d9 3d
       0.07065681 0.07852782 0.063639164 0.10616678
0003b0 e4 05 1e 3e 25 2e e1 3d d4 bb b2 3d 28 c7 97 3d
       0.15431935 0.109951295 0.087272316 0.07411033
0003c0 36 05 98 bd 2d 27 b6 3d 2a 07 e9 3d 5f cf 16 3d
       -0.07422869 0.08894191 0.113783196 0.03681886
0003d0 45 57 ae 3d b2 82 e8 3d 96 1a ad 3d 7d 96 e6 3c
       0.08512739 0.11353053 0.084523365 0.02814793
0003e0 7f 2b 23 3e 46 d8 da 3b 9f 32 b4 bc 06 33 8d 3d
       0.15934561 0.006678614 -0.021996794 0.068944976
0003f0 55 40 78 bc 52 e9 99 3d 01 50 f8 3d fc 61 ce 3d
       -0.015152057 0.075152054 0.121246345 0.10077283

fc2.bias f4 [256]
000000 b6 6b a2 3c d2 54 5e bd 1f 89 38 bc 6a 13 5e bd
       0.019826751 -0.05428011 -0.011263161 -0.054217733
000010 6d a7 43 bd 3b d6 36 bd 3f 34 35 bd f0 d0 7b 3d
       -0.04776709 -0.0446379 -0.04423928 0.061478555
000020 91 51 39 3d 23 ed ea 3a 1c 4f 06 3d c9 aa 51 3d
       0.045243803 0.0017923455 0.03279029 0.051188264
000030 d8 2b 74 bb 7d 26 48 bc d0 9a 0d bd e4 da 64 bd
       -0.0037257578 -0.012216208 -0.03457147 -0.055872813
000040 02 d3 0a 3e 23 e7 dd bc a1 b0 c9 bc 3b 32 89 3b
       0.13557056 -0.027087754 -0.024620356 0.004186896
000050 31 ad 16 bd b1 5b 70 bc 28 7c c5 bc 0d 90 d5 3c
       -0.036786262 -0.014670298 -0.024107054 0.026069665
000060 4f 95 b3 bb 63 b4 60 3d c2 4b 03 ba 20 d9 8a bd
       -0.0054804455 0.05485953 -0.0005008542 -0.067796946
000070 69 e1 c7 bc 8c b5 42 bc 37 8f 80 ba c2 eb 6e bc
       -0.024399476 -0.011884104 -0.0009808306 -0.014582576
000080 5a a8 f4 3b 61 3b 81 3c 89 f4 c3 bd 40 51 a3 3d
       0.007466358 0.015775384 -0.09568126 0.079744816
000090 bb 5c e7 3c ca 41 5b bd fb 0b 19 3d e2 60 9e 3d
       0.02824246 -0.05352954 0.03736494 0.07733323
0000a0 c4 ab 18 3b 6d 35 b1 bc 94 81 d1 3a df df 89 bc
       0.002329574 -0.02163192 0.0015984052 -0.016830383
0000b0 3b 80 c3 bc 98 09 00 bd 5c fb fa bc 6c 72 f1 3d
       -0.023864856 -0.03125915 -0.030637436 0.11789402
0000c0 87 a7 70 bd 9d 86 39 bc 3b 5f 39 3d 57 74 c7 bc
       -0.058753517 -0.011323598 0.045256834 -0.024347467
0000d0 a4 8a e7 bc de 6b 16 3e dc a0 3e 3e 73 f0 10 3d
       -0.028264351 0.14689586 0.1861605 0.03538556
0000e0 65 c1 4c bc 16 cc 5f bd cc d0 ca bb a4 49 92 bc
       -0.012497281 -0.05463799 -0.0061894413 -0.01785738
0000f0 9d 04 57 3d e6 78 47 3e f1 94 ab bd 2a 78 88 bc
       0.052494634 0.19479713 -0.08378018 -0.016658861
000100 52 bd 58 bc 2c ae 85 bc 3e 7f c9 bd fc 33 f8 3a
       -0.013228731 -0.016318403 -0.09838723 0.0018936391
000110 76 d6 d0 bd 2e 53 c0 bd 3e 4a 38 3d 40 ed 7f bc
       -0.10197155 -0.09390865 0.044992678 -0.01562053
000120 d7 49 27 3d 3a 1b e8 3d 31 fd 04 be e8 35 07 bd
       0.040841904 0.11333318 -0.1298721 -0.033010393
000130 14 80 4e bc 1b a9 d3 bc cf bf 5b 3d d5 1f 73 3d
       -0.012603778 -0.025837472 0.05364972 0.05935653
000140 b1 01 6a 3c 98 60 d8 bd 5f f9 2c ba b4 90 80 bd
       0.01428263 -0.10565299 -0.00065984385 -0.062776
000150 5f 8b 86 3d 7c 28 f1 bd 5f ca 12 bd 5d 6e f9 bb
       0.06569552 -0.117753 -0.035837527 -0.0076120333
000160 7d db 0c bd f4 c5 0a 3b 68 72 de bd 1e e2 90 3c
       -0.034389008 0.0021175118 -0.10861665 0.017685946
000170 29 4a 5f 3d 66 5f 84 3c 3e 6b 1f bc c2 db 9f bd
       0.054514084 0.01615877 -0.009730158 -0.07805587
000180 be 3b 81 bd f1 6c f3 bc 9d 9e 92 bd d5 89 93 bd
       -0.06310223 -0.029715033 -0.07159159 -0.07204024
000190 d2 c6 82 bc a1 ab fd bc 54 8b 48 bc c3 d8 3e bd
       -0.015963946 -0.030965628 -0.01224025 -0.04659344
0001a0 8e de 80 bc 14 57 78 bd 19 22 38 bd 1f de d2 bd
       -0.015731122 -0.06062992 -0.044954393 -0.102962725
0001b0 85 4a 36 bc ac 01 bb bc 77 39 88 bd a7 66 3e bb
       -0.011126165 -0.022827946 -0.066515855 -0.0029052885
0001c0 d2 b7 a1 3c f3 c3 31 3c 72 32 9e 3e bc b9 f3 bb
       0.019740973 0.010849941 0.30897862 -0.0074379127
0001d0 78 63 8d 3e 7e 47 6c bd 2f c4 97 bc f6 a3 01 bd
       0.2761495 -0.057685368 -0.018526165 -0.031650506
0001e0 5c ad f2 bb 8a fd df 3d fa c3 70 bc e5 73 9b bd
       -0.00740592 0.109370306 -0.014695162 -0.075904645
0001f0 14 ee 37 bb 99 65 61 bd 49 08 51 ba af 2a c1 bc
       -0.002806549 -0.05502853 -0.0007973952 -0.023579923
000200 4b 6f 80 bd 40 e4 d0 3d b1 cc 98 bb 8b e4 90 3c
       -0.062712274 0.10199785 -0.004663073 0.017687103
000210 0f d4 58 bd e9 f5 64 bd 94 53 47 3c 20 42 93 3c
       -0.05293661 -0.05589858 0.012165923 0.017975867
000220 67 a4 29 3d 26 02 b7 bd ff 90 94 bd 9b 8f 1f 3d
       0.041416552 -0.08935957 -0.07254218 0.038955312
000230 49 c6 25 3e b5 b7 4b bc 79 65 55 3d 0d 53 2f bc
       0.16188921 -0.012433936 0.052098725 -0.010700953
000240 9f 04 94 bd c9 86 c2 bd 9f 97 ed bb fc d7 c4 3c
       -0.07227444 -0.094983645 -0.0072507407 0.02402877
000250 77 2f 9e bd aa 49 41 3e c5 c1 d7 bd 85 3d c9 bd
       -0.07723897 0.18875757 -0.105350055 -0.09826187
000260 e9 76 91 3b c6 2f 06 3c ed 61 18 3e 9b 7f aa 3e
       0.004439224 0.008190101 0.14881106 0.3330048
000270 7d d4 a9 bc 60 2c 02 3c bc f7 d5 bd 82 76 d7 bd
       -0.020731205 0.00794515 -0.10447642 -0.105206504
000280 60 55 a8 b8 43 3f 95 bd 0c 88 47 3c 86 7d 9f bd
       -8.0267666e-05 -0.07287457 0.012178432 -0.077876136
000290 30 8a c2 bc 68 83 b5 3c e6 5a 5c 3c 2d 54 4e 3d
       -0.023747534 0.022157386 0.013449406 0.050373245
0002a0 4c a9 68 3e a1 af bf bc 34 f8 7f 3c 0a d3 ea 3c
       0.22720832 -0.023399176 0.015623141 0.028665084
0002b0 d1 ae 33 bd 93 38 82 bd 16 6a d7 bd aa 1e 05 3d
       -0.04386789 -0.06358447 -0.10518281 0.032499947
0002c0 c0 ee f2 bc 22 ad 8b bc 52 21 ba bd 79 a6 19 bd
       -0.02965486 -0.01705033 -0.090883866 -0.037512276
0002d0 93 3f 39 bc 32 a8 37 3e 83 65 30 bd 9c c8 80 3e
       -0.011306661 0.17935255 -0.04306556 0.25153053
0002e0 48 6f a1 bd 25 72 b6 3d e9 ae 07 bd 49 60 98 bd
       -0.07882553 0.0890849 -0.03312579 -0.0744024
0002f0 13 98 e5 bc 33 38 8c bd 14 2d 41 3d fe 5a a5 bc
       -0.028026616 -0.06846657 0.04716213 -0.02018499
000300 f9 71 26 bd 6a 86 d4 3b 89 6d 35 bc bf 71 df bd
       -0.040636037 0.00648575 -0.0110734785 -0.10910367
000310 d7 f0 46 bd 97 8e ca bd f8 4f c2 bd e6 70 de bc
       -0.048569527 -0.09890478 -0.09487909 -0.027153444
000320 7f 07 15 bd 5c a8 d0 3c cf d7 23 be 8e e4 d6 bd
       -0.036384102 0.025470905 -0.16000293 -0.10492812
000330 a6 1e 70 3d 40 a3 9f bb 21 3b 7f bd 8c 15 0a bd
       0.05862298 -0.004871756 -0.06231225 -0.033711955
000340 0f 42 76 3e 47 55 d0 b9 75 37 da 3a 94 d4 f0 bd
       0.24048637 -0.00039736388 0.0016648608 -0.11759296
000350 14 31 e5 3d 01 e9 a0 bc 37 06 d7 bd b7 cb 9e bd
       0.111910015 -0.019642355 -0.10499232 -0.07753699
000360 2e 16 8f bd eb 0c 5f 3d c2 7b 6c 3c d1 76 cd 3d
       -0.06986652 0.05445568 0.014433803 0.10032428
000370 ea 6b 0c bd 14 40 40 3d 4c 04 c7 3a 04 c9 9f bd
       -0.034282602 0.04693611 0.0015183776 -0.078020126
000380 13 78 1c bc f3 28 f3 3c 7b 75 b6 bc a9 b8 f2 3c
       -0.009550112 0.029682612 -0.022272816 0.029629068
000390 19 75 6c 3c 1b e6 3e 3d 69 e9 45 3d d4 59 28 3d
       0.014432215 0.046606164 0.0483183 0.04110129
0003a0 95 78 75 bd 0d 41 d5 bd 15 24 0c bd f3 36 b0 bc
       -0.05992945 -0.10412798 -0.034214098 -0.021510577
0003b0 01 8c e4 3c d6 ea 32 3c 4e 94 30 3e d2 b1 8c bd
       0.02789879 0.010920247 0.17244074 -0.06869854
0003c0 43 fe 67 3c ad 84 57 bd 72 c6 9b 3d f2 2a f4 bd
       0.014159742 -0.052616764 0.0760621 -0.11922254
0003d0 85 56 89 3e 18 90 0c bd 31 d3 c6 bc 27 ac 2c bd
       0.26823822 -0.034317106 -0.024270626 -0.042156365
0003e0 1a 59 ed 3c 12 8a cd 3c e5 16 b3 3c 06 62 e4 bd
       0.028973151 0.025090251 0.021861503 -0.11151509
0003f0 9e 63 b6 3c 56 17 72 3e 7f 6e 1e bc 7b ca 82 bd
       0.022264298 0.23641714 -0.009669899 -0.06386276

fc3.weight f4 [2, 256]
000000 d3 f5 1c 3d 01 20 0e 3b 58 15 98 3d 9b 09 2a 3c
       0.038320374 0.0021686556 0.07425946 0.010378267
000010 f2 cd 45 3d 76 c2 63 3e fa 66 95 3b a5 ea cd 3d
       0.048292108 0.2224215 0.004559395 0.100545205
000020 f3 09 29 3d 39 75 01 3e 41 26 36 3d 92 1b 03 3e
       0.041269254 0.12642373 0.044470076 0.12803486
000030 c2 f0 01 3e 8a 51 9c 3d 43 01 54 3d 24 17 c1 3d
       0.12689498 0.0763274 0.051759016 0.09428242
000040 b8 c2 c8 be 9a 75 e1 3d c0 7d 28 3d b1 88 e4 3d
       -0.3921106 0.11008759 0.04113555 0.11158884
000050 d0 c4 8a 3c 2b 83 19 3e cd 0a 28 3e 4c 29 1b 3e
       0.01693955 0.14991443 0.1641037 0.15152472
000060 ee ba 2e 3e 66 95 30 3d 40 82 2a 3e 92 03 55 3e
       0.17063496 0.043111227 0.16651249 0.20802143
000070 86 92 1e 3d 29 14 e3 3d 56 80 76 3d 44 34 17 3e
       0.038713954 0.110878296 0.060180984 0.14766032
000080 e7 0f 04 3e 40 e1 dd 3b a7 00 4e 3d 2f 13 83 be
       0.12896691 0.0067712367 0.05029359 -0.25600573
000090 83 63 11 3d bc 0f a4 3d 8c b5 11 3e 42 62 91 be
       0.035495292 0.080108136 0.14229411 -0.28395277
0000a0 9e 32 20 be 6c 56 00 bd 37 30 1b 3e a0 14 03 3d
       -0.15644309 -0.03133242 0.15155111 0.03200209
0000b0 9d a9 0c 3e 65 7d ca 3c 3b ea d7 bd c4 a3 de be
       0.13736577 0.024717996 -0.10542723 -0.43484318
0000c0 66 42 fd bb 81 80 c0 3d fa 51 e0 3d f7 b8 c6 bd
       -0.0077288626 0.0939951 0.10953136 -0.09703248
0000d0 76 8b e9 3c 16 21 a6 be 25 58 6b be 72 17 b2 3d
       0.028508883 -0.32447118 -0.22982843 0.08695878
0000e0 e0 7c dd 3b 2f 29 cb 3d b0 3c b5 3d 92 df 87 3d
       0.006759271 0.099199645 0.08849466 0.066344395
0000f0 6f a0 90 3d 57 8f 41 be e3 6a ce 3c 63 88 65 bd
       0.0706185 -0.18902336 0.025197452 -0.05603827
000100 05 a1 23 3d 74 c5 99 3d e0 73 67 3d ae 49 ae 3d
       0.039948482 0.07508364 0.05650699 0.08510147
000110 0e 1b 58 3d 0d e1 97 bb 5c 14 0f 3e 55 38 b2 3d
       0.052760176 -0.0046349824 0.1397261 0.08702151
000120 9a 97 07 3e d5 7d 90 be 59 6e f1 3c c5 e7 0e bc
       0.13241425 -0.28221002 0.029471563 -0.00872225
000130 ba fa 58 3d a1 19 3a 3d 93 4d a7 3d 1c b7 5e be
       0.052973486 0.045434598 0.08169093 -0.21749538
000140 6b 5f d7 3d d3 e8 a4 3d 8e 9e 0e bb 08 ff 58 bc
       0.105162464 0.0805222 -0.0021761986 -0.013244398
000150 1c 95 d1 3d 97 70 a1 3b 88 4f 67 3e 56 72 bc 3d
       0.102335185 0.004926752 0.22588933 0.09201495
000160 79 3b 26 3c 07 9b b7 bc e9 38 63 bc 6c a6 e5 3d
       0.010146015 -0.02241279 -0.013868549 0.11213383
000170 e0 11 b0 3d 34 f0 ab 3d 95 52 f1 3d 48 f9 96 3b
       0.085971594 0.083954245 0.117833294 0.0046073534
000180 46 18 65 3e b4 71 94 3e ab fd 30 3d 20 a8 f7 3a
       0.22372541 0.28993 0.043210667 0.001889471
000190 81 3f c3 3b 51 61 8b 3b 73 11 ad 3d ba 8b 30 3d
       0.005958498 0.0042535444 0.08450594 0.043102004
0001a0 44 fe 83 3d 3a 97 43 3e 11 07 ab 3d 88 8f 9f 3c
       0.06444982 0.19100657 0.08350957 0.01947762
0001b0 06 12 71 3d 2a ed e1 38 02 79 87 3d d6 07 d8 3d
       0.05885508 0.00010773011 0.06614877 0.105483696
0001c0 2c 20 0f 3d 78 3d 6a 3d 46 76 06 bf 45 b6 e9 ba
       0.03494279 0.057187527 -0.5252422 -0.001783081
0001d0 fc 52 17 bf 49 f2 74 3d 96 42 61 3e 67 df 31 3e
       -0.59111 0.059801374 0.21998057 0.17370377
0001e0 e2 aa a1 3d 36 2d 87 be b9 45 45 3d 07 f3 67 39
       0.078939214 -0.2640168 0.048162196 0.00022120411
0001f0 e8 15 8f 3d 39 d4 5f 3b 6e 43 32 bc c2 f1 3a 39
       0.069866 0.0034153594 -0.010880334 0.00017828404
000200 78 60 eb 3c 14 fc 6c be d9 69 1a 3e 66 39 06 3e
       0.028732523 -0.23143035 0.1507944 0.13107833
000210 e7 4a c6 3d cd 40 da 3d 9e 4f 14 3e db 82 7e bc
       0.09682255 0.10656891 0.14483497 -0.015534128
000220 1d 1b 00 3e 81 a5 3b 3b 29 21 2a 3d 10 9b f4 3c
       0.12510343 0.0028632584 0.04153553 0.029859096
000230 35 0d db be a9 9d 38 3d 1f 43 0d 3d e8 15 ec bc
       -0.42783514 0.04507223 0.03448784 -0.02881904
000240 7e 79 dc 3c 08 70 ca 3b a5 83 17 3e 77 78 23 3e
       0.0269134 0.006177906 0.14796312 0.15963922
000250 a6 e0 17 3d a3 75 c3 be ee 47 d4 3b 94 d8 38 3d
       0.037079476 -0.38175687 0.0064783012 0.04512842
000260 e1 95 28 bd 37 18 e1 3d 59 71 bd be 53 8f 0f bf
       -0.04115856 0.10990947 -0.3700054 -0.5607807
000270 30 71 15 3e 22 c4 1e 3e 22 eb df bc 97 8e 0d 3d
       0.14593959 0.15504506 -0.0273338 0.034559812
000280 2e 66 c2 3d 54 59 f8 3c 4f 17 11 3e 85 25 39 3d
       0.094921455 0.030316032 0.14169048 0.045201797
000290 4d eb 3a bc 69 1b 98 bd ad 78 7d bd 2c a7 a6 3d
       -0.011408639 -0.07427103 -0.061882664 0.08137354
0002a0 dd a9 db be ff 7c 66 3d 9f 36 14 3e c3 92 ce bc
       -0.42903033 0.05627155 0.14473961 -0.025216466
0002b0 95 49 4b 3c 41 0f 78 3d c2 86 0e 3d d5 00 8c 3d
       0.01240768 0.060561422 0.034796484 0.06836096
0002c0 6a 99 9d 3d 34 de 06 3e 74 dc 4e 3e da 5d 3c 3d
       0.07695277 0.13170701 0.20201284 0.04598794
0002d0 b7 40 04 3e 1f 1a a9 be fb 56 48 bc 78 68 44 bf
       0.12915312 -0.3302774 -0.012227769 -0.76721907
0002e0 bd df 87 3d d6 94 bd 3d fa 9a 99 3c c1 39 84 3c
       0.066344716 0.09256904 0.018750656 0.01614082
0002f0 18 80 b9 3d 85 cd b4 bc 18 62 a9 3d b2 e3 b3 3d
       0.09057635 -0.022070656 0.08270663 0.08783664
000300 49 9a 16 3d 24 b0 53 3d c2 3b af 3c 7a 3f a0 3e
       0.03676823 0.051681653 0.0213908 0.3129843
000310 f3 7c 10 3c 31 b8 db 3d 34 58 d6 3c 52 3f 3c 3e
       0.008818853 0.10728491 0.026165105 0.1838353
000320 9d 14 98 3c a6 a3 ec 3d 3b 01 55 b9 8f 0a 7b 3d
       0.018564517 0.11554651 -0.00020313721 0.061289366
000330 e4 6c d1 3d 53 16 da 3e 52 c6 89 3d 48 50 47 3d
       0.10225847 0.42595157 0.0672728 0.048660547
000340 59 32 4f bf 97 53 88 3d c7 0f cb 3d fb f9 3f 3e
       -0.809362 0.066565685 0.09915119 0.18747704
000350 65 83 16 be ab cd c7 3c 76 9f 6a 3d c5 a3 19 3d
       -0.1469856 0.024390062 0.05728098 0.0375097
000360 a8 e2 2c 3d c3 35 cc 3d a6 ee 6f 3d c5 5c 61 be
       0.042208344 0.09971192 0.058577202 -0.22008045
000370 6a 92 10 3e 18 56 bd 3d b6 04 a8 3d 26 3c 83 3d
       0.14118353 0.09244937 0.082040235 0.06407957
000380 86 bc 25 3e 88 82 35 3e 41 98 15 3e cd 3a d5 3d
       0.16185197 0.17725575 0.14608862 0.10411606
000390 2f a6 21 3e b6 8e c0 3d ff 80 a2 3d 5f 8c d9 3d
       0.1578605 0.0940222 0.0793476 0.10622477
0003a0 03 07 10 3e 0e 67 54 3b 23 b2 f3 3d 27 c7 a1 3d
       0.14065175 0.0032410058 0.11899211 0.078993134
0003b0 ee 9b d6 3d 59 f4 69 3d 9f 07 4f be 4f 8b ae 3d
       0.1047896 0.057117794 -0.20217751 0.08522665
0003c0 01 00 39 bb c0 81 b1 3c 08 f0 10 be b7 65 b3 bc
       -0.0028228762 0.021668315 -0.14154065 -0.021899087
0003d0 db 4d 8c bf 18 75 4e 3d fe 5b 4a 3e c3 7f c5 3d
       -1.096126 0.050404638 0.19761655 0.09643509
0003e0 75 fa 58 be 9f 27 1e 3e bb 08 5d 3d 3a a8 8c 3d
       -0.21189292 0.15444802 0.053963404 0.06868024
0003f0 b4 11 e6 3d fa 05 da be c4 7f e9 3d e2 ed b6 3c
       0.11233845 -0.42582685 0.114013225 0.022330228

fc3.bias f4 [2]
000000 b6 f6 b1 3d 21 f9 8a bd
       0.086896345 -0.06785799
