model.pth (torch, 380295 bytes, 6 tensors)

fc1.weight f4 [256, 109]
000000 a8 0d 8a 3d bd ce 92 be 04 d3 87 bd 41 97 23 be
       0.06740886 -0.28673354 -0.06632045 -0.15975668
000010 11 be 11 be c4 db c2 3d c7 a4 13 bd 0a 2d e0 3d
       -0.14232661 0.09514573 -0.036045816 0.109460905
000020 47 a2 44 3e 3c 32 60 be 9d aa 9e bd e8 8e 23 3e
       0.19202529 -0.21894163 -0.07747386 0.15972483
000030 4d 2d b2 bd 1f ef 59 3e 93 03 85 bd cd b6 a7 bd
       -0.08700047 0.21282624 -0.06494822 -0.08189163
000040 b7 03 45 be 4d c0 0f be 30 a6 0e 3e 1d e1 af 3e
       -0.19239698 -0.140382 0.13930583 0.34351435
000050 48 09 9b 3c 29 73 6b 3d b7 78 6d bd 6b 87 96 bc
       0.018925324 0.057482872 -0.05797645 -0.01837512
000060 7d d2 ed 3c 9c 2b 1a 3e 8d 35 7f 3c 63 3b 72 3e
       0.029031033 0.15055698 0.015576732 0.23655467
000070 1d 8b 82 be d0 8e aa 3d 5b 25 d8 3d 05 6a 97 3c
       -0.2549676 0.083280206 0.10554 0.018483171
000080 10 aa 75 be e0 41 39 bb 7e b8 56 be b4 59 22 be
       -0.23990655 -0.0028268024 -0.20968816 -0.15854532
000090 ea cf bb 3d 94 87 9e bd c4 05 9e bd b9 7d f1 3d
       0.09170516 -0.07740703 -0.077159435 0.11791558
0000a0 b4 81 ff 3d e7 fa ab bc 6a 0d 82 3e 92 81 87 be
       0.12475911 -0.020993663 0.2540086 -0.26466042
0000b0 68 aa 17 3e f3 d6 b9 bd 0f 8a 74 be 1c 93 1e 3e
       0.14811099 -0.090742014 -0.2388079 0.15485805
0000c0 80 f5 d6 bd bc 20 ab bd c6 8a 21 3e 46 61 06 3d
       -0.10496044 -0.08355853 0.15775594 0.03280761
0000d0 b7 cb 32 3e 34 90 eb bd 27 28 9c 3e f0 f8 57 3e
       0.17460524 -0.11502114 0.30499384 0.21091056
0000e0 7a dd 22 3e 08 bc e4 bd f9 7a d8 bd ee 26 6b 3c
       0.15904799 -0.111686766 -0.1057033 0.014352543
0000f0 df b4 c9 bd 26 08 8a 3d 2c 68 26 3e 8a 16 a0 3e
       -0.098489515 0.067398354 0.16250676 0.31267196
000100 18 09 9f 3e a8 00 bb be a5 4a cc bc a2 37 97 3e
       0.31061625 -0.36523938 -0.024937937 0.29534632
000110 20 21 48 be d3 24 b6 bc 3e c8 c8 3d bc 30 7d be
       -0.19543886 -0.022234356 0.09803818 -0.24725622
000120 e8 71 fa bc c3 7b 9b bd 5f 18 a8 3d 8a 68 88 3d
       -0.030571893 -0.07591965 0.082077734 0.06660564
000130 ff dc 86 3d 4b c4 66 bd 34 ab b5 bd fb 4a fe 3d
       0.065851204 -0.056339543 -0.08870545 0.12416645
000140 99 b9 40 bd 34 e8 3f be 7b 79 d5 bd 40 40 56 bd
       -0.047052 -0.18740922 -0.10423561 -0.052307367
000150 46 fc 97 bc 7b 0e 6c be 22 b3 a7 3c f0 01 23 3e
       -0.01855291 -0.23052399 0.02047116 0.15918708
000160 10 71 63 3d ea f8 ec bd 94 c8 cc be 04 91 12 bd
       0.055527747 -0.11570914 -0.3999678 -0.03578283
000170 22 e8 46 3e 4c 74 9e bd 76 35 d7 be 35 81 1f be
       0.19424489 -0.077370256 -0.42032975 -0.15576632
000180 8e 20 c6 bd 62 e0 f9 3d 31 fa 2d be e5 7f cd 3d
       -0.09674178 0.12201001 -0.16989972 0.100341596
000190 5d 6e 15 3e e7 dc d6 3d 2f 38 70 3e 38 2c 02 bc
       0.14592882 0.104913525 0.23458932 -0.007945113
0001a0 95 50 05 3e c5 c5 05 be c0 df 0e 3e 41 55 b5 bd
       0.13019021 -0.13063724 0.13952541 -0.088541515
0001b0 5f ba 10 3d d7 ad c4 bd 11 d1 d9 bc fb b9 e2 3d
       0.035333987 -0.0960347 -0.026588948 0.11070629
0001c0 3a 90 b8 3e f7 46 29 be 15 f7 53 3d fe a2 3d 3d
       0.36047536 -0.16530977 0.051749308 0.04629802
0001d0 5e 44 73 3e 00 e1 69 bb 35 dc 86 3e 27 94 74 bd
       0.23756549 -0.003568709 0.2633988 -0.0597116
0001e0 34 5a 70 3c 7c 91 06 3e 5c 1d 77 3e a6 a1 f0 bd
       0.014669944 0.13141435 0.24132293 -0.11749582
0001f0 38 db a8 3d 94 16 27 be ca 41 45 be 67 81 be 3d
       0.08244938 -0.16317207 -0.19263378 0.09302025
000200 c8 4b 81 be 41 ea ac bd 82 dc 76 3e a5 98 94 bc
       -0.2525313 -0.08443118 0.24107555 -0.018139193
000210 1c 9f 72 3e 33 fa b4 3e 1f 08 3e be d2 8e 5a 3e
       0.23693508 0.35347137 -0.18557785 0.21343544
000220 1c d5 b9 bd 78 84 8a bc f0 82 0c be 4f 1c 01 3e
       -0.090738505 -0.01690887 -0.13721824 0.12608455
000230 f3 58 92 bd ea 53 26 3d 45 8e 70 bd cb 31 86 3e
       -0.07145872 0.04060737 -0.05872943 0.26209864
000240 b7 26 d5 3d 61 72 4a 3c 6a 11 a1 3e 4a 74 2f 3d
       0.10407775 0.012356372 0.31458598 0.04283551
000250 09 bc b9 3d 52 ef e2 3d 1f 17 a6 bd d2 83 87 3d
       0.09069068 0.11080803 -0.08109879 0.066169396
000260 13 22 14 bb d5 ea 6c 3e e3 20 12 be cd 12 0a 3e
       -0.0022603318 0.23136456 -0.14270358 0.13483734
000270 e4 56 71 bd 3e 0f 84 be 0f a0 df 3d 31 de e9 3d
       -0.058920756 -0.2579288 0.10919201 0.11419333
000280 f1 ee 5b be c6 98 ca bd 92 1d 8b bd 5d 0d 0e 3e
       -0.21477868 -0.098924205 -0.067927495 0.13872285
000290 da 3d 37 bc fe d4 06 3e 70 3f bd bd b6 0b 26 bc
       -0.01118418 0.13167188 -0.09240615 -0.010134628
0002a0 e8 ce 04 3d 4e a8 9b be 2a c4 93 bb b5 be 59 3c
       0.032423884 -0.30401844 -0.0045094686 0.013290097
0002b0 05 4f 02 3d ec c0 3e 3e 97 7b fd 3d e8 f0 9d 3d
       0.03181364 0.18628281 0.123770885 0.07711965
0002c0 71 28 cd bd 28 01 2b 3e 3f f7 9f be 2a be 7c be
       -0.10017479 0.1669966 -0.3124332 -0.24681917
0002d0 ba 70 38 3e dd 94 d7 bd 94 e9 e0 be 71 96 02 3e
       0.18011752 -0.1052644 -0.43928206 0.12752701
0002e0 25 0f d5 be ad ec aa 3c 69 e1 c9 3d d1 e7 98 bd
       -0.41613117 0.020864809 0.09857447 -0.074660905
0002f0 7a 45 93 bd cb 2f 70 3e 32 5f 35 3e 54 a0 9f be
       -0.07190986 0.23455732 0.17712095 -0.31177008
000300 2f 61 8e be 99 9a 43 3e c7 3e 62 3e 6c e2 ef be
       -0.2780852 0.19101943 0.2209426 -0.46852434
000310 fb 99 2f bb 06 40 c2 bd a8 8e 81 bd df 95 52 3e
       -0.002679466 -0.09484868 -0.06326038 0.20564984
000320 ab 58 bc 3d 60 52 23 3e 56 16 3a 3e b0 09 00 3e
       0.091965996 0.15949392 0.18172583 0.12503695
000330 a4 ae af 3e 63 cf 0f 3e 26 5b 6b be d2 b6 bc 3b
       0.34312928 0.14043956 -0.22983989 0.0057590986
000340 59 41 97 bd e1 81 d4 bc 5c b1 3f be 54 5b 4a be
       -0.07385511 -0.025940837 -0.18720001 -0.19761401
000350 a6 15 a2 bd 9d 35 14 be a2 b7 02 3f 63 6d f6 bd
       -0.07914285 -0.14473577 0.5106145 -0.120325826
000360 47 14 c1 3d ee 78 2b bd fd fa 76 be ed 71 9a bd
       0.09427696 -0.041863374 -0.24119182 -0.07541261
000370 83 b2 56 be 3d 2c c8 bd 5e 70 99 3c 00 fe 61 be
       -0.20966534 -0.09774063 0.018730339 -0.2206955
000380 ce 46 c2 3d 21 79 f5 ba 8e 2a ac bd 27 81 9c 3d
       0.09486161 -0.0018728116 -0.08406554 0.07641821
000390 cc 85 81 3d fc 03 4a be e0 a4 36 be 0a 76 8d bc
       0.06324348 -0.19728082 -0.17836332 -0.0172682
0003a0 a1 81 22 3e 0e 97 1f bc a3 62 35 be ac 2a e8 3c
       0.15869762 -0.009740604 -0.17713408 0.02834066
0003b0 1c 4d 88 3e 61 e2 80 3e e3 47 38 3e 9f 4e 82 3c
       0.2662133 0.25172713 0.17996173 0.01590663
0003c0 0a 65 31 3c 36 96 5a 3c 01 ca b9 3d 83 42 dd 3d
       0.010827312 0.013341477 0.09071732 0.10803702
0003d0 e2 ee c6 3d e6 3d ea bd 19 aa 55 be dd ed 35 be
       0.09713532 -0.114375874 -0.20865668 -0.17766519
0003e0 99 88 2d be 48 ec de 3d a4 66 0f bc 43 e7 3e 3d
       -0.16946639 0.10884911 -0.008752499 0.046607267
0003f0 e9 c5 fa bd 57 5a 34 3d f4 59 95 3d 44 a4 fb bd
       -0.122447796 0.044031467 0.07292548 -0.122871906

fc1.bias f4 [256]
000000 6f d8 3d bd 83 ca 9c 3d 0c 94 4e 3d bc 3d d0 3c
       -0.046348985 0.076558135 0.050434157 0.025420062
000010 b8 7d 94 3d fe 09 36 bd 03 26 92 bc 54 9c f3 3c
       0.072505414 -0.044443123 -0.017840391 0.029737629
000020 07 a1 a2 3c 5d 2c 50 3d 36 8f 26 be e8 32 2d be
       0.019852174 0.050823558 -0.16265568 -0.1691395
000030 cb e3 01 bd f2 e5 c3 bd 93 ef bb bd e2 91 d3 bd
       -0.03171138 -0.09565343 -0.091765545 -0.10330559
000040 85 78 d3 bd 43 3d 8f bd 1c 9f 27 3c 2c 9f c6 bd
       -0.10325722 -0.069941066 0.010230806 -0.096983284
000050 7c de b7 bd 21 73 1f bc 05 a4 b8 3b b3 66 8d 3d
       -0.089779824 -0.009732039 0.005634787 0.06904354
000060 e8 03 c6 bd 67 d7 a7 bd d6 f5 96 bd 70 e2 71 3d
       -0.09668714 -0.081953816 -0.07371108 0.05905384
000070 ac c8 25 bd cf 6a 28 be ff 58 c2 bd 96 a2 fa bb
       -0.04047458 -0.16446994 -0.09489631 -0.0076487763
000080 85 47 fe bc 3a c3 08 bc 0c 60 a2 bc 91 1d 9f 3d
       -0.031039963 -0.008347327 -0.01982119 0.07769311
000090 56 e2 72 bd dd 43 fd bd 96 9b 5e bc 29 06 42 3c
       -0.059297882 -0.123664595 -0.013586899 0.011842289
0000a0 8c 41 2f bd 30 6e 9a bd df cd 8a 3c 0c 30 c6 bd
       -0.04278712 -0.07540548 0.01694387 -0.09677133
0000b0 f4 48 b9 bd cc 9a 93 bc 33 91 22 bd a5 77 f4 3c
       -0.09047118 -0.018018149 -0.039689254 0.029842207
0000c0 9f a5 4c bd e5 8f 8f bd d7 04 61 3d 8f 5c b3 bd
       -0.049962636 -0.070098676 0.054936256 -0.087578885
0000d0 63 69 07 be d3 82 8b 3d db 14 e8 bc b8 44 1f be
       -0.13223796 0.06812062 -0.028330257 -0.15553558
0000e0 84 b7 d3 bd 53 27 fe bb 27 1c 4f 3d c2 a0 83 3d
       -0.10337737 -0.0077561527 0.050563958 0.064271465
0000f0 17 6f 9f bd 40 35 d5 3d 53 79 66 bd ba 0b ce 3b
       -0.077848606 0.10410547 -0.056268048 0.006288019
000100 6c e5 82 bd a3 40 c6 3b ff ff f8 bd 48 60 15 3c
       -0.06391415 0.0060501858 -0.121582024 0.0091171935
000110 e9 f1 d8 3c b8 30 03 bd c6 53 c1 3d dd 5b 0d be
       0.02648254 -0.032028884 0.09439807 -0.13804574
000120 d2 f6 7c 3d 64 c1 6c 3c 91 04 4c bd 94 18 db bc
       0.061758824 0.014450405 -0.049809042 -0.026745118
000130 32 bf ba bc 8d 2e 05 3d bd f5 c3 bc 06 97 c5 3b
       -0.022796247 0.032515097 -0.023920888 0.0060299663
000140 6c 4b 8c 3c 58 9d aa bd b6 5d 7f 3d 5e ce 55 bc
       0.017125808 -0.08330792 0.06234523 -0.01304969
000150 1f 54 0a ba 6a d5 17 be a5 d8 dc bd c5 de 10 bd
       -0.0005276817 -0.14827505 -0.10783509 -0.0353687
000160 29 76 91 bc 71 78 11 3e 22 95 3d 3d 80 65 ca bc
       -0.017756538 0.14206101 0.046284802 -0.024706602
000170 0b ae a4 bd 8d 42 75 bd 13 78 b8 3c 90 37 70 bd
       -0.080410086 -0.05987792 0.022518193 -0.05864674
000180 a1 cd a1 bd 14 f4 6c bd 69 7b 25 bd af a6 8f 3d
       -0.07900549 -0.05784996 -0.040400896 0.07014214
000190 f1 57 fa bd e4 a4 2a bd d1 1c 18 be 67 39 0b bd
       -0.12223805 -0.04166116 -0.14854743 -0.03399029
0001a0 ae e8 4c 3d 7e 19 2f bc 4a 92 ba bd 07 18 6c bd
       0.05002659 -0.01068723 -0.09109934 -0.0576401
0001b0 1c ff df bd 71 4f 2d bd bb 99 84 bd f9 91 36 be
       -0.1093733 -0.04231209 -0.06474634 -0.17829122
0001c0 d9 7d bb 3d 4f 97 90 3c 48 46 cb bc 21 0a 97 bd
       0.09154863 0.017650275 -0.024813786 -0.07374979
0001d0 ec 13 00 3d a2 5f 89 bc f4 12 f5 bc 14 67 8e bd
       0.031269 -0.016769234 -0.029916264 -0.06953254
0001e0 99 03 e8 3c da f0 5b bc 74 08 c3 bc d6 c7 bd bc
       0.028322028 -0.013424123 -0.023807742 -0.023166578
0001f0 9e e3 0d 3c 96 aa 30 be 95 ee 81 bd e8 26 6a 3d
       0.008660225 -0.17252573 -0.06344334 0.05716601
000200 35 84 3e bd d6 5b 8c bd 82 b5 c7 bc 30 6c 1d bd
       -0.0465128 -0.06853454 -0.024378542 -0.038433254
000210 82 ab 04 be a0 7a 76 3c 0e 93 26 be b9 a6 16 bd
       -0.1295605 0.0150438845 -0.16267034 -0.036780093
000220 30 fb 83 bd 8a 73 d4 3c cb 76 1d be 8b bc 5f 3d
       -0.064443946 0.025934 -0.15377347 0.054623168
000230 d7 37 0a 3d fd c3 40 3d 09 56 1a be 38 1b e2 bc
       0.03374466 0.04706191 -0.15071882 -0.02760087
000240 4b d0 15 bc 4a fd 08 bd 64 37 af bc 70 2a fb bd
       -0.009143899 -0.03344468 -0.021388717 -0.12263954
000250 6e 10 84 bd a0 ad 87 bd 3a 41 84 3c 84 59 99 bd
       -0.06448446 -0.06624913 0.016144384 -0.07487777
000260 d6 22 bc bd ed c4 21 be cd 6b 08 be 1a 8f 2b be
       -0.09186332 -0.15797777 -0.13322373 -0.16753808
000270 2d bd 5c bb 1f f1 c4 bd ee bb a6 3c c4 67 22 bd
       -0.0033682093 -0.09616303 0.020353284 -0.03964974
000280 61 f5 a1 bc 30 c1 5c bd 18 71 19 bd 37 06 2b 3c
       -0.019770326 -0.053895175 -0.03746137 0.010438493
000290 8c 5f ac bd 5c 29 09 3d ba f8 b1 bd 7d 8e 98 bd
       -0.084166616 0.03348671 -0.08690019 -0.074490525
0002a0 3c f4 18 be ba 64 10 bd c7 0b 75 bc b2 bd e9 bc
       -0.14936918 -0.03525231 -0.014956421 -0.028532837
0002b0 8a a1 78 3c 35 13 a6 bd 7a a0 8d bd c5 2b a9 bd
       0.015175233 -0.08109132 -0.06915374 -0.082603015
0002c0 07 40 e0 bc ee bd 9c bd 20 0e 90 3b f5 30 82 bc
       -0.02737428 -0.07653414 0.004396215 -0.015892485
0002d0 cb 6c 25 bd f1 a5 fc bd e9 06 2d 3d 93 1b 67 3c
       -0.040386956 -0.12336338 0.04224292 0.014105695
0002e0 90 04 e7 bd 47 98 2e bc f8 6b e3 bd 13 7b 1c bd
       -0.11280167 -0.010656423 -0.11104578 -0.03820331
0002f0 e4 01 41 bd ad ce 85 bd 2d a6 7d bd 09 cc a2 bd
       -0.047120944 -0.06533561 -0.061926056 -0.07949073
000300 f1 2c d8 bc 0f 65 a0 bd 8e 77 ae 3d 05 ce ab 3d
       -0.026388617 -0.078317754 0.08518897 0.083889045
000310 f7 fa a9 3c a2 79 81 bc d1 45 1a be 18 0a c7 bd
       0.020749552 -0.01580507 -0.15065695 -0.09718722
000320 8e ac 8e bc e5 f5 af bd 9a 40 7a 3b b0 ce fa 3b
       -0.017416265 -0.085918225 0.0038185478 0.0076540336
000330 8c 1b 00 be be 79 f9 bd 57 3d d6 bc 14 51 2f 3c
       -0.12510508 -0.121814236 -0.026152296 0.010700483
000340 fd 3c 10 bd 0f e6 1a bd dd 06 3c bd 38 ae d9 3c
       -0.035214413 -0.037817057 -0.045904983 0.026572332
000350 e5 54 4c bc 23 93 a8 bc ab 3a a9 bd 24 8c ee bb
       -0.012471412 -0.020577973 -0.08263143 -0.0072798897
000360 dd e9 93 bc b6 2c b7 bd 60 84 f3 3c fe c6 68 3d
       -0.01805585 -0.08944075 0.029726207 0.0568304
000370 f5 49 27 3c 71 09 64 bd d8 c3 c6 3c bf e2 63 3d
       0.010210504 -0.055673067 0.024263307 0.055636164
000380 1d e6 7d bd 54 13 07 be af 41 aa bd 84 e9 e7 3c
       -0.06198703 -0.13190967 -0.083133094 0.028309591
000390 3a 87 31 bd 16 3d 07 bd 8d 16 c7 bc 12 66 f0 bc
       -0.043341853 -0.03301724 -0.024302745 -0.029345546
0003a0 99 f6 1e 3c 50 87 0f 3d 6d 98 36 bd f9 b8 6d bc
       0.009702348 0.035041153 -0.04457896 -0.014509433
0003b0 5d 41 15 be 05 0e 98 3c 8c 7b 4a bc 68 6f 15 bd
       -0.14575715 0.018561373 -0.012358557 -0.0364832
0003c0 3e 42 e5 bd e2 cf 96 bd 78 f3 13 be 4c 39 c5 bd
       -0.11194275 -0.07363869 -0.14448345 -0.09630069
0003d0 c5 3a 1f bd 60 4e 8f bd ba 32 80 bc e0 71 22 be
       -0.038874406 -0.06997371 -0.015649188 -0.15863752
0003e0 6d f0 78 bc 3a ec 8f bc e2 65 4f bd 6f 63 2c 3d
       -0.015194041 -0.017568696 -0.050634272 0.042087015
0003f0 52 d5 cf bd e0 04 ab bb 4b 1a 9c bd 50 e7 8e 3c
       -0.101481095 -0.005219087 -0.076222025 0.017444283

fc2.weight f4 [256, 256]
000000 e1 a5 68 3d c0 dd d6 bd 57 09 a4 3d 14 95 10 bd
       0.05679882 -0.10491514 0.08009594 -0.035298422
000010 44 b0 18 be 13 05 aa bd 07 83 80 3d 35 61 e0 3c
       -0.1491099 -0.08301749 0.062749915 0.027390102
000020 67 4e b4 3d ec f1 9f 3c ff 59 1b 3d 38 2d cd bd
       0.088040166 0.019524537 0.037927624 -0.100183904
000030 e1 ae 31 3d 42 f3 ba 3d e4 6a b7 bc d2 8c a5 bd
       0.04337967 0.09128429 -0.022389837 -0.080835
000040 48 6d be 3d bd cb a4 3c 1f 40 3d 3c 67 d2 37 3d
       0.092981875 0.020116681 0.011550932 0.04487839
000050 35 56 9c 3d 03 67 bf 3e 1e f1 56 bd e7 3a f3 3d
       0.0763363 0.3738328 -0.05247604 0.11876469
000060 75 8d a6 3d 6b 6d d9 3c e0 32 95 3d e9 af e3 3d
       0.081324495 0.026541432 0.07285094 0.111175366
000070 39 2e 0f be 98 74 ac bc f4 a9 92 3d d7 d0 67 bc
       -0.13982476 -0.02105169 0.07161322 -0.014148912
000080 5f 6b 31 3d 04 59 ea 3d 77 48 86 bd 23 eb e7 3d
       0.043315288 0.1144276 -0.0655679 0.11324146
000090 16 6f 69 bd fa e6 b5 3d b2 b1 b4 3d e7 17 f7 3d
       -0.056990705 0.08881946 0.08822955 0.12065106
0000a0 bc fc e8 3d bc 06 06 3e 86 20 e1 bc 1c db 68 bc
       0.1137633 0.13088506 -0.027481329 -0.014212396
0000b0 62 6f 20 3d fe 86 d4 3d 2b b4 dc bd 59 93 de 3d
       0.039168723 0.1037731 -0.10776552 0.10867948
0000c0 ee 00 90 3d ba a9 3f 3c 15 1b d4 3d d5 96 ef bc
       0.07031427 0.011698181 0.10356728 -0.029246727
0000d0 9d 42 65 3d 10 f8 72 bd 54 00 64 3d c4 e0 9a 3c
       0.05597173 -0.059318602 0.055664375 0.018906005
0000e0 07 b8 d6 3d 14 76 90 3c d3 cb a6 3d e0 26 98 3d
       0.10484319 0.017634429 0.08144345 0.0742929
0000f0 f0 ff a7 3c 15 44 a3 bc 8a fe eb bd ab 77 8e 3d
       0.020507783 -0.019929925 -0.11523159 0.069564186
000100 54 68 a2 3d 20 70 ab 3c f5 b5 e4 3c 6c 4b 5b 3d
       0.07930055 0.020927489 0.027918795 0.053538725
000110 d7 ed 1f bc ba 35 0c 3d d5 dd 37 3d eb 29 bd 3d
       -0.009761295 0.034230925 0.04488929 0.09236511
000120 17 49 20 3e 5c 96 f4 3d df c6 1c 3e 20 3e 24 3c
       0.15652882 0.11942741 0.15310238 0.010024577
000130 8d d4 4a bc c7 4e 9a 3d 81 b9 0a bc f0 d9 c5 3d
       -0.012379778 0.07534557 -0.008467079 0.09660709
000140 6e 74 59 bd 43 67 36 3b e2 fc c3 bd e5 44 0c 3d
       -0.05308955 0.0027832545 -0.09569718 0.03424539
000150 af 88 3c ba 63 42 cd 3d aa 13 3e 3d a4 dc ef 3d
       -0.00071919983 0.10022428 0.04640547 0.11712006
000160 dd 99 47 bd 3f 78 0c 3e b0 d8 4d 3d f6 58 d9 3d
       -0.04873072 0.13717745 0.050255477 0.10612671
000170 4f 21 de 3b 48 a9 ab 3b 1d f2 b1 3c e8 c3 54 3c
       0.006778873 0.0052386858 0.021721894 0.012986161
000180 c8 c4 a2 3d 46 f9 91 3d c1 b2 ef 3c 93 9a 14 3d
       0.07947689 0.07127623 0.029260041 0.036280226
000190 4d a4 c2 3c 43 19 13 bc 20 48 8f bc 59 7c 87 bd
       0.023759985 -0.008978191 -0.017490447 -0.06615514
0001a0 34 0d e1 bc d3 93 bb 3d 3c db 73 bb b5 85 b5 3d
       -0.027472116 0.091590546 -0.0037209531 0.08863393
0001b0 b7 03 c6 3d cf 05 a4 3d 3b df 8c 3d a0 16 30 3c
       0.09668677 0.080089204 0.06878515 0.010747582
0001c0 29 a8 d5 3d 23 82 a9 3d a0 be 70 3d dc 43 b1 3d
       0.10432465 0.08276775 0.058775544 0.08655521
0001d0 76 d5 8c bd 9e 87 10 3e 6c 2c 8b 3c 44 be 89 3d
       -0.06876652 0.14114234 0.016988955 0.067257434
0001e0 f2 09 6d 3d 5b 47 c7 3d 12 7e 06 be 66 2a 18 be
       0.057870813 0.09730407 -0.1313403 -0.14859924
0001f0 f4 c9 a6 3d 3d e1 c7 3c e1 1b dd bc 5d bb ad 3d
       0.08143988 0.024399394 -0.026990833 0.08483002
000200 91 f8 4c bd 26 a8 79 3d 62 6e 80 3c 7f be 3a bd
       -0.05004174 0.060951374 0.015677635 -0.045591827
000210 d5 0c 16 3e 8d d0 ac bc 60 af 54 bd 64 0a f2 3d
       0.14653333 -0.021095539 -0.051925063 0.11818388
000220 4d 28 11 bc 5a 26 91 bd e5 e1 39 3c 50 7f d5 3b
       -0.008859706 -0.07087393 0.011345361 0.006515421
000230 4f e8 2f 3d dc 05 07 3d 00 71 08 3c 83 5f 81 3d
       0.042946156 0.032964572 0.008327723 0.063170455
000240 14 7a da 3d 01 28 a0 3d fc a2 9b 3d 90 b4 a0 3d
       0.10667816 0.0782013 0.07599446 0.078469396
000250 74 5b ba 3d 2e 96 e0 bc 68 b5 8a bd 45 8a 4f 3c
       0.090994745 -0.027415361 -0.06772882 0.012667243
000260 6e 43 32 3e cf f8 1c 3c de 2c 3b 3d 28 60 c8 3d
       0.17408535 0.009580805 0.045697086 0.09783965
000270 68 28 11 3d 15 b8 d1 3d 27 2f 86 3d a6 f6 b8 3d
       0.035438925 0.10240189 0.06551962 0.090314195
000280 4a e3 f0 bc 17 b5 90 3c 8f 67 53 3d a9 59 19 3d
       -0.029405255 0.017664475 0.051612433 0.037439022
000290 be 5b 44 3d a7 bd b7 3d 9a bf cc 3d f4 d4 0e 3d
       0.047939055 0.0897172 0.099974826 0.034871057
0002a0 83 b0 37 3e 58 a5 5c bd c9 96 05 3e c4 83 0f bd
       0.17938428 -0.05386862 0.13045801 -0.03503777
0002b0 0b 5e e6 3d b5 67 91 3d c2 b8 5d 3d 55 26 8e bc
       0.11248406 0.07099859 0.054131277 -0.017352263
0002c0 14 fc 5d 3d f9 42 a5 3d a8 19 83 bc d3 e0 a1 3d
       0.05419548 0.08069415 -0.016003445 0.0790421
0002d0 a2 7e 39 bd 70 86 1c 3d 0b 40 e6 3d 67 cd 0e 3e
       -0.045286782 0.038214147 0.11242684 0.13945542
0002e0 b8 68 0a bd b7 87 a0 3d 4c 0e 75 3d 84 52 1c 3e
       -0.033791274 0.078383856 0.059828088 0.15265852
0002f0 4d 19 03 3d 7c 20 41 3d d7 93 00 bd 18 5c 31 3b
       0.03200655 0.04715012 -0.03139099 0.0027062949
000300 74 59 bb bd d1 a6 3d 3b 93 42 b8 bd cb f5 e9 3d
       -0.09147921 0.0028938542 -0.08997073 0.114238344
000310 6b 43 16 bd ea d1 0a 3c 1e 6b a3 3d 3d 08 4b bc
       -0.03668539 0.008472899 0.07979415 -0.012392101
000320 5a 75 a0 bd 2c 8e 7a 3d 01 0d f0 3d 51 a9 ff 3c
       -0.07834883 0.061170742 0.1172123 0.031208666
000330 4f 5e 8d 3d 19 78 56 3e ca 25 0e bd f7 c9 6d 3d
       0.069027536 0.20944251 -0.034704007 0.058053937
000340 e9 54 61 bd 81 79 d6 3d 4d 59 28 bc f1 2d 38 3d
       -0.055012617 0.10472394 -0.010275197 0.04496569
000350 05 c6 60 3c 82 02 d0 bb 9c 69 9f 3d d0 ae 07 3d
       0.013719087 -0.006347955 0.07783815 0.0331257
000360 1b 4e 4e bd 20 94 d8 3c 8d 64 26 3c 22 c7 c8 bd
       -0.050367456 0.026437819 0.010155809 -0.098036066
000370 15 ef f0 3c d8 63 b6 bd a4 93 81 3d 4d 9a d7 3d
       0.029410878 -0.089057624 0.06326988 0.105274774
000380 e0 d1 c2 3d 2c 06 92 bd e6 3b 17 3d cc 95 13 be
       0.09512687 -0.071300834 0.036922358 -0.14412612
000390 d9 20 dc 3b 12 67 7c 3d a0 64 bd bd 4e 84 de 3c
       0.006717783 0.061621733 -0.09247708 0.027162697
0003a0 00 45 7d 3d f0 c5 ba 3c f0 db f6 3c bf 35 c1 3d
       0.06183338 0.022799462 0.030134171 0.094340794
0003b0 50 50 eb 3d d4 e9 d3 3d 08 bb b2 3d 4f 53 38 3d
       0.11489928 0.103473336 0.0872708 0.045001324
0003c0 3f d7 bd bb a9 26 b6 3d f3 c3 ca 3d 0a 62 1e bc
       -0.0057934816 0.088940926 0.099006556 -0.009666929
0003d0 b4 3e 1b 3d 65 83 dc 3d eb 08 be 3d 0c 92 e6 3c
       0.037901595 0.10767249 0.09279045 0.028145812
0003e0 d9 71 0b 3e 3f cd da 3b a3 f0 be bc fa aa c7 3c
       0.13617648 0.0066772993 -0.023308104 0.02437352
0003f0 86 11 b9 bc d8 06 99 3d 79 76 fa 3d 15 07 cf 3d
       -0.022591364 0.074720085 0.12229628 0.10108773

fc2.bias f4 [256]
000000 27 f0 08 3d 26 53 5e bd 08 87 05 bd 3a 10 5e bd
       0.033432152 -0.054278515 -0.03259948 -0.054214694
000010 6d a4 43 bd 81 26 86 3c 36 31 35 bd 7e e3 a5 3d
       -0.04776423 0.016375782 -0.044236384 0.08100031
000020 fc 09 84 3d f1 61 da 3c 09 10 ca 3c fc 1b aa 3d
       0.06447217 0.02665803 0.02466585 0.08306119
000030 50 2c 4d ba a7 53 58 3c c7 97 0d bd 8f d7 64 bd
       -0.00078267325 0.013203538 -0.034568574 -0.055869635
000040 e0 7b a0 bb 33 f3 b8 3c 5b a9 c9 bc bf 09 a2 3c
       -0.0048975796 0.022576904 -0.024616888 0.019780038
000050 4b 3f 18 bd 08 2e 92 3c ca 16 8f 3d 95 01 39 3d
       -0.037169736 0.017844215 0.069867685 0.045167524
000060 38 ec c0 3b 86 47 a7 3d 5c 09 97 bc 67 c3 f7 bb
       0.0058875345 0.08167939 -0.01843708 -0.0075611356
000070 cb 1f 02 bd ae ba 8a bc c0 26 80 ba 5d 56 0c 3d
       -0.0317686 -0.016934719 -0.0009777173 0.03426205
000080 05 7d 10 3c ee ed 64 3c 0e f3 c3 bd d7 3b 29 3c
       0.0088188695 0.0139727425 -0.095678434 0.010329208
000090 77 ae 16 3d 88 3e 5b bd 08 e5 04 3d 5b 96 b6 bc
       0.036787476 -0.05352643 0.032444984 -0.022288492
0000a0 3b bd 2b bd de 3d cf bc 69 d6 b5 bc 5c 51 88 bc
       -0.04192851 -0.025298055 -0.022196965 -0.016640358
0000b0 27 c1 9a 39 80 06 00 bd 3e b5 63 bd 2b 7e d1 3b
       0.0002951708 -0.0312562 -0.055592768 0.006393214
0000c0 3f a0 73 bd 2a e0 7d bc e5 a2 87 3d ab bc 36 bd
       -0.059478994 -0.015495339 0.066228665 -0.04461352
0000d0 08 f3 e7 bc 8c 02 43 3d 08 2f cb 3d 1e 5d cf 3c
       -0.028314129 0.04760985 0.0992108 0.025312956
0000e0 00 b4 4c bc d2 d9 7f bd 9f 07 a2 3a 4e 2f 28 bc
       -0.012494087 -0.06246359 0.001236189 -0.010265185
0000f0 9e 1a 47 3d 09 f5 0c 3e 4c 93 ab bd f3 4a c5 bc
       0.04860937 0.13765348 -0.08377704 -0.02408359
000100 8d af 58 bc 5e 0b f7 bc 17 7d c9 bd 98 02 ad 3c
       -0.013225448 -0.030156787 -0.09838312 0.0211194
000110 a6 d4 d0 bd a6 55 c0 bd 2f 16 66 3d 5a de 7f bc
       -0.101968095 -0.09391336 0.0561735 -0.015616978
000120 55 6e 8d 3d 55 5d f1 3c 5a fc 04 be 75 31 07 bd
       0.0690581 0.02946345 -0.1298689 -0.03300615
000130 d1 0e 4e bc 31 1d 6b bd 9d 72 69 3d fc 6f 45 bc
       -0.012576775 -0.057400886 0.05699407 -0.012050625
000140 a1 bc 56 3d 0f 44 d6 bd 5b 2f 2c ba f5 8e 80 bd
       0.052425984 -0.104622 -0.0006568336 -0.06277267
000150 37 d2 9e 3d 02 27 f1 bd c0 29 a4 3c 8b 55 f9 bb
       0.07754939 -0.11775018 0.02003944 -0.0076090745
000160 f1 c0 0c bd e6 ce 86 bc 8f 70 de bd 94 2e 65 3c
       -0.03436369 -0.016456079 -0.108613126 0.013988156
000170 43 d2 48 3d 95 ba 93 3c 4f d5 0c bd 05 da 9f bd
       0.049028646 0.018033305 -0.034383114 -0.07805256
000180 4b 6d f7 bc 1a 1e 86 3b fe 9c 92 bd a6 80 93 bd
       -0.030203482 0.004092944 -0.0715885 -0.07202272
000190 81 e5 16 bd c2 a3 fd bc ef 9d 3a 3d c1 d5 3e bd
       -0.036839966 -0.030961875 0.045560773 -0.04659057
0001a0 2c 4b 23 bd c8 f2 ca 3b 71 1e 38 bd 17 dc d2 bd
       -0.03986661 0.0061934926 -0.044950906 -0.10295885
0001b0 60 39 36 bc 58 b4 f9 bc de 37 88 bd 84 b9 8c 3c
       -0.011122078 -0.030481502 -0.06651281 0.017178304
0001c0 eb 1d 3f 3b 30 74 10 3d b5 c2 68 3e cf 9f f3 bb
       0.002916212 0.035267055 0.22730525 -0.007434822
0001d0 c1 87 39 3e 7c 44 6c bd bf 05 af 3c be 18 a5 ba
       0.18118192 -0.0576825 0.021365045 -0.0012595875
0001e0 d5 c0 f4 bc fa e3 99 bb 03 b8 70 bc 5f 72 9b bd
       -0.029877106 -0.0046963664 -0.014692309 -0.07590174
0001f0 75 36 8b bc ce 1c 58 bd 3e 07 00 bd 54 71 d3 bc
       -0.01699374 -0.052761845 -0.031256907 -0.025810875
000200 ac 6d 80 bd a3 32 d3 3c db 89 64 bb 78 a8 6d 3d
       -0.06270918 0.025780981 -0.0034872207 0.058021992
000210 d9 9f ae bd 7c 7a b2 bd f9 a2 a9 3c 99 30 1f 3b
       -0.08526582 -0.08714768 0.020707594 0.002429044
000220 d9 0f 99 3d ac 00 b7 bd 5e 8e 94 bd 25 9d c8 bc
       0.07473726 -0.08935675 -0.07253717 -0.024488995
000230 91 a7 9a 3d 24 3c f6 bc 6c a0 7c 3d f9 43 2f bc
       0.07551492 -0.030057974 0.061676428 -0.010697358
000240 94 02 94 bd f4 84 c2 bd 4c 73 3c bc 39 06 4f 3d
       -0.07227054 -0.09498015 -0.011502098 0.050543044
000250 fd 2d 9e bd 70 b7 96 3d 01 c0 d7 bd 0a 3c c9 bd
       -0.07723615 0.07359207 -0.10534669 -0.09825905
000260 e1 c5 c5 39 d1 20 39 bd a3 bb df 3c 59 e9 2d 3e
       0.000377222 -0.04519731 0.027311152 0.16983546
000270 ca 65 56 bc 7e 99 38 3d 0b f5 d5 bd fb 96 d7 bd
       -0.013085792 0.045068257 -0.10447129 -0.10526844
000280 03 d1 84 3d a2 3d 95 bd 3c d7 76 3d 0b 7c 9f bd
       0.06485178 -0.07287146 0.060263857 -0.07787331
000290 ce 10 c8 bc 8e 94 f1 3b 38 56 82 3b 2e 0c 2a 3d
       -0.024422076 0.0073724454 0.003977563 0.04151552
0002a0 7a db fb 3d 16 0d 42 bd 6d 28 45 bc 4c bf cc 3c
       0.12297721 -0.04737576 -0.012033564 0.024993561
0002b0 02 c6 2d bd 18 37 82 bd 9a 68 d7 bd bc 33 43 3a
       -0.042425163 -0.063581645 -0.10517998 0.00074463687
0002c0 0d 56 2a 3d ad bc 4d bc c9 41 5b bc 01 a3 19 bd
       0.04158597 -0.012557191 -0.013382384 -0.03750897
0002d0 86 b1 9a bc bf 2f b4 3c 28 5e 30 bd b6 6c 78 3d
       -0.018883478 0.021995423 -0.043058544 0.06065055
0002e0 b3 6d a1 bd b4 bf a8 3d 2d a7 34 bd cf 5e 98 bd
       -0.078822516 0.082396895 -0.044104744 -0.07439958
0002f0 9d 25 01 3c d7 4a 96 bd b3 59 72 3d 3c d9 e1 bc
       0.007882503 -0.07338493 0.059167575 -0.027569406
000300 f7 ed 6a bd 1b a7 d3 3b 23 cc 21 bc c6 e1 d8 3b
       -0.057355847 0.0064591295 -0.00987533 0.006618711
000310 ed ed 46 bd fe 8c ca bd 46 4e c2 bd 97 d7 20 bc
       -0.048566747 -0.098901734 -0.09487586 -0.009817026
000320 aa 03 15 bd 46 52 0f 3d 12 d6 23 be 09 e3 d6 bd
       -0.036380447 0.03499057 -0.1599963 -0.10492522
000330 24 04 54 3d 9a 2e c6 bc 53 37 7f bd 91 12 0a bd
       0.05176176 -0.024192143 -0.06230862 -0.033709113
000340 67 7a 14 3e 90 7f ad bc ed 2a e1 bc fb 49 19 bd
       0.14499818 -0.02117899 -0.027486289 -0.03742407
000350 52 50 47 3d 01 e3 a0 bc 04 04 d7 bd 3a ca 9e bd
       0.048660584 -0.019639494 -0.10498813 -0.077534154
000360 8f 14 8f bd 92 08 b9 3d de a8 da b9 c1 74 0e 3d
       -0.06986343 0.09034838 -0.00041706016 0.034779314
000370 1c 39 51 bc 45 81 6e 3d 98 8b 88 3d e4 c6 9f bd
       -0.012769964 0.05822875 0.066672504 -0.07801607
000380 4d eb c0 bc fb ec 2d 3d 02 a7 93 3c b4 18 77 bc
       -0.0235497 0.04246233 0.018023971 -0.015081573
000390 b6 dd 59 3d 57 4a 8a 3d 90 7b 9d 3d 8e 04 0c 3d
       0.053189956 0.067524604 0.07689583 0.03418403
0003a0 3d 00 06 bd 66 43 d5 bd 0d 9e 60 3c 9c 30 b0 bc
       -0.03271507 -0.10413246 0.013709557 -0.021507554
0003b0 89 4a c7 3b 75 71 a1 bb 1c 03 e1 3d a1 b0 8c bd
       0.0060818833 -0.004926855 0.10986921 -0.06869627
0003c0 e0 cf 9a 3c 0f bb 8f bd 5b 18 38 3c 26 29 f4 bd
       0.01889795 -0.070181005 0.011236276 -0.11921911
0003d0 87 8d 3d 3e 24 44 42 bd 99 8d e3 3c 59 02 7d bc
       0.1851102 -0.047428265 0.02777748 -0.015442454
0003e0 3b 80 09 bd ba 09 a4 3d 0b 69 c3 3c 8c 60 e4 bd
       -0.033569556 0.08009668 0.0238538 -0.11151227
0003f0 77 aa 3c 3d 7c f7 f8 3d 04 d9 59 bc 61 dc 94 bd
       0.046061005 0.12156579 -0.013296369 -0.072685964

fc3.weight f4 [2, 256]
000000 8b 7d e8 3c 3f f2 0d 3b 16 23 5b 3d c5 fd 29 3c
       0.028380176 0.0021659283 0.053500257 0.010375445
000010 f5 ca 45 3d c8 6f 1c 3e fb 4f 95 3b ca ad a1 3d
       0.048289258 0.15277016 0.0045566536 0.07894476
000020 7e 16 ac 3c 52 43 c1 3d a8 b5 dc 3c cd 3c f1 3d
       0.021006819 0.094366685 0.02694209 0.11779175
000030 ec f4 c9 3d 85 b6 18 3d 55 fe 53 3d ad 15 c1 3d
       0.09861168 0.03728344 0.05175622 0.094279625
000040 d9 d7 6c be 6d ed a7 3d d3 7a 28 3d 35 73 94 3d
       -0.23129214 0.08199582 0.04113276 0.072485365
000050 6f 82 9c 3c 9d c7 0a 3e c5 46 11 3e 32 35 c7 3d
       0.019105164 0.13552709 0.14187153 0.09726943
000060 26 b1 d1 3d 32 02 b1 3c b1 03 d7 3d 92 de 07 3e
       0.102388665 0.021607492 0.10498751 0.13268498
000070 cd a9 ff 3c e9 91 b8 3d 1b 7e 76 3d c7 ff cd 3d
       0.031208897 0.09012205 0.060178857 0.10058551
000080 17 68 7d 3d 32 fe 6f 3b aa fd 4d 3d 6e 86 45 be
       0.061866846 0.0036620018 0.05029074 -0.19289562
000090 75 e0 2e 3c 4b 0e a4 3d 74 09 c1 3d 60 c7 1c be
       0.010673632 0.08010539 0.09425631 -0.1531043
0000a0 88 0d b9 bd 6f 0a c3 bc 99 13 e7 3d c3 18 03 3d
       -0.09035784 -0.023808686 0.11283035 0.032006036
0000b0 73 3b d0 3d 06 7b ca 3c 21 79 ac bd e7 69 59 be
       0.10167589 0.024716865 -0.08421541 -0.21231805
0000c0 4a cc f4 39 cb 9d 91 3d 83 fa 9f 3d 43 a7 9c bd
       0.00046691514 0.07110175 0.07811453 -0.0764909
0000d0 68 f0 e8 3c 11 b9 6b be c2 78 2e be 5c 09 4c 3d
       0.028434947 -0.23019816 -0.17038253 0.049813613
0000e0 4d 77 dd 3b 9c ba ca 3d 07 31 c4 3c 3d 2c 39 3d
       0.0067586065 0.09898874 0.02394916 0.045208205
0000f0 1a 93 44 3d 36 1f 1d be 10 66 ce 3c 56 d2 27 bd
       0.04799185 -0.15343937 0.025195152 -0.040972076
000100 96 9e 23 3d 9c ed c6 3c 23 71 67 3d 24 fb 80 3d
       0.03994616 0.024283223 0.05650438 0.06297901
000110 28 18 58 3d ec fd 97 bb 64 37 e7 3d e2 36 b2 3d
       0.052757412 -0.004638424 0.11289862 0.08701874
000120 a2 1f e6 3d 92 83 53 be 04 6c f1 3c db f0 0e bc
       0.11236502 -0.20655659 0.029470451 -0.008724417
000130 d1 02 59 3d 44 03 ae ba a9 f4 7c 3d db 59 2d be
       0.0529812 -0.001327612 0.061756764 -0.16928808
000140 28 b2 3b 3d d3 e7 a4 3d 5a b5 0e bb fc 05 59 bc
       0.0458242 0.080520295 -0.0021775574 -0.013246056
000150 0f 66 af 3d 9e 58 a1 3b 05 ae 13 3e dc 70 bc 3d
       0.08564388 0.004923894 0.14421852 0.09201214
000160 5f 31 26 3c 63 a5 eb bc 14 3f 63 bc c0 be c8 3d
       0.010143607 -0.028765386 -0.0138700195 0.09802008
000170 5f 6d 98 3d 60 08 61 3d dc 9f b7 3d 74 e2 96 3b
       0.07442736 0.054939628 0.08966038 0.004604632
000180 2b 35 de 3d c9 26 0b 3e c3 fb 30 3d 00 39 f9 3a
       0.10849985 0.13589014 0.04320885 0.001901418
000190 75 77 b4 bb d3 4c 8b 3b 6b 84 81 3d c0 88 30 3d
       -0.0055074045 0.0042511015 0.06324085 0.043099165
0001a0 a0 f6 41 3d 71 c8 13 3e b2 05 ab 3d 14 8e 9f 3c
       0.04735434 0.14431931 0.08350696 0.019476928
0001b0 e1 0f 71 3d 2b b3 4b bc bb 77 87 3d bb ca bc 3d
       0.058853034 -0.012432854 0.06614634 0.09218355
0001c0 0c d5 e1 3c 53 dd 20 3d 41 54 b4 be db 0a ea ba
       0.027567409 0.03927357 -0.3522053 -0.0017856018
0001d0 d5 0e c0 be 4f ef 74 3d ea f3 e6 3d eb c4 0d 3e
       -0.37511316 0.059798535 0.11276992 0.1384465
0001e0 78 f8 73 3d c9 9a 06 be be 42 45 3d 23 02 65 39
       0.05956313 -0.13144983 0.048159353 0.00021839938
0001f0 e1 a9 60 3c 52 be 5f 3b 76 0a 9b bc 26 17 f8 bb
       0.013712377 0.003414054 -0.018925887 -0.007571119
000200 9d 5a eb 3c b5 23 1f be 04 14 d3 3d b6 38 f0 3d
       0.028729731 -0.15540965 0.10306552 0.11729567
000210 7a a0 b6 3d 46 41 d3 3d 7e 32 d3 3d 6c 32 c1 bc
       0.08917327 0.10315184 0.10312365 -0.023583613
000220 d3 02 ee 3d 87 75 3b 3b ca 1e 2a 3d a8 a5 1d bb
       0.116216324 0.0028603987 0.04153327 -0.0024055038
000230 a3 79 9c be 62 ba e9 3c 94 2f fa 3c 3b 12 ec bc
       -0.3056155 0.028531257 0.030540265 -0.028817287
000240 cc 73 dc 3c c1 65 ca 3b ba 33 a0 3d 33 3d c2 3d
       0.026910685 0.006176681 0.07822366 0.09484329
000250 ab dd 17 3d 60 81 6b be a0 4b d4 3b 99 d5 38 3d
       0.037076633 -0.22998571 0.0064787418 0.045125578
000260 ec ef 0c bd b8 1f af 3d 12 ab 81 be c2 00 b0 be
       -0.034408495 0.08550972 -0.2532583 -0.34375578
000270 a6 60 b3 3d 50 0b 09 3e 48 ea df bc 82 a0 cc 3c
       0.087586686 0.13383222 -0.027333394 0.02497888
000280 04 06 54 3d 5c 53 f8 3c c8 38 e0 3d 8a 22 39 3d
       0.05176355 0.030313186 0.1094833 0.045198955
000290 04 7b 13 bc 44 4e 5b bd c9 d0 44 bd 31 69 6b 3d
       -0.009001497 -0.053541437 -0.048050676 0.057473365
0002a0 0f 45 8d be cd 81 25 3d b4 0f 9a 3d 65 32 38 bd
       -0.2759175 0.04040699 0.075225264 -0.044969935
0002b0 cd 67 94 3b 46 0c 78 3d c3 83 0e 3d cd 8b ea 3c
       0.0045289756 0.06055858 0.034793627 0.028631115
0002c0 89 cc 31 3d 5c 41 d5 3d ed ab 1b 3e e0 5a 3c 3d
       0.04340795 0.10412857 0.15202303 0.045985103
0002d0 ed db a6 3d 2c db 5c be da 4f 48 bc c1 78 bc be
       0.08147416 -0.21567982 -0.012226069 -0.36810878
0002e0 45 de 87 3d 54 37 12 3d e3 66 55 3c c0 33 84 3c
       0.066341914 0.035697296 0.013025018 0.016137958
0002f0 d3 5f 90 3d 2e 4d 7b bc f2 40 87 3d 5f a0 93 3d
       0.07049527 -0.015338225 0.06604184 0.07208323
000300 48 9c a9 3b e9 12 3c 3c e9 d2 94 3c 93 2c 22 3e
       0.005176101 0.011479118 0.018166976 0.15837316
000310 14 71 10 3c b9 b6 db 3d f3 51 d6 3c be 5c d8 3d
       0.008816022 0.10728211 0.026162123 0.10564564
000320 81 10 98 3c ae be b8 3d ce 8f 57 b9 ad 07 7b 3d
       0.018562557 0.09020744 -0.00020557569 0.061286617
000330 eb 7a 8b 3d 1f ce be 3c 3d c5 89 3d 4d 4d 47 3d
       0.06810554 0.023291646 0.06727073 0.048657704
000340 41 29 e6 be 10 f1 5c 3d fe 22 9a 3d bc 01 9d 3d
       -0.4495335 0.053940833 0.075262055 0.076663464
000350 ae a1 02 be a4 c7 c7 3c e4 9c 6a 3d cb a0 19 3d
       -0.12756988 0.024387188 0.05727853 0.03750686
000360 d8 df 2c 3d cc ca 98 3d 08 73 17 3d 79 ef 05 be
       0.04220566 0.074605554 0.036974937 -0.13079633
000370 2e 6d f0 3d 47 44 93 3d e9 88 7b 3d ed 3a 83 3d
       0.117395744 0.07190757 0.061409865 0.064077236
000380 aa 8d b0 3d 4e 88 dd 3d dc 20 eb 3d f0 89 93 3d
       0.0862077 0.10817014 0.11480877 0.07204044
000390 34 2b fd 3d a1 d4 87 3d 06 66 6d 3d 03 75 c1 3d
       0.12361756 0.066323526 0.057958625 0.09446146
0003a0 26 28 bb 3d 00 21 54 3b a5 f5 99 3d be c5 a1 3d
       0.09138517 0.0032368302 0.07517556 0.078990445
0003b0 f3 10 f6 3c 8d f7 2d 3d 30 93 30 be ef 89 ae 3d
       0.030037379 0.04247241 -0.17243648 0.085224025
0003c0 34 e1 e1 bb d0 04 7b 3c 5b 1a 02 be 83 66 b3 bc
       -0.0068933014 0.015320972 -0.12705366 -0.021899467
0003d0 d4 c1 3c bf d1 bd cd 3c 97 6d 27 3e ae ac f5 3c
       -0.7373326 0.025114926 0.16350399 0.029989567
0003e0 c6 08 23 be fa f2 06 3e 4b 1c 2e 3d c1 a6 8c 3d
       -0.15921316 0.13178626 0.04250745 0.06867743
0003f0 01 b4 c9 3d a0 6a 94 be cc 4e 9f 3d 1d 73 9c 3a
       0.09848786 -0.28987598 0.07778701 0.0011936162

fc3.bias f4 [2]
000000 40 0f c0 3d aa 11 99 bd
       0.09377909 -0.07474072
