model.pth (torch, 379863 bytes, 6 tensors)

fc1.weight f4 [256, 109]
00000000: a626 4a3d fc29 2dbd 191d 98bc 3e25 383d
00000010: c8ac b8bd d348 6b3d 326c a1bc e197 473d
00000020: e328 5a3c e526 40bc b1a1 d93c 3fd5 9a3b
00000030: d349 0f3d c4e3 18bd f2d4 e4bb b647 0dbc
00000040: ff75 633c 599c c8b9 a17a ab3d fd2c f43c
00000050: c21a 12bd 14f3 6cbd 1485 83bc dc39 29bd
00000060: bb70 fbbc 0d48 963b 4fe0 693d 4e3e 553d
00000070: 57c2 bfbd f135 733d 0734 db3c 4212 ba3d
00000080: ad7a 813d 3abb b2bd 6583 babd 343b 3dbd
00000090: bd40 ac3d d6b2 82bc 44e6 273d 7651 36bd
000000a0: 7e7a c03d 0cfe 25bd 7c1b 933d 45aa 943a
000000b0: 1aaf 4ebd 45a9 493d 1d41 50bd 07c5 e63c
000000c0: df92 e2bc af0c 2cbc af96 bcbd bf0d 3bbd
000000d0: a5e3 543d 1dbb bebc 4d63 c33d ea3d 9d3d
000000e0: fbf5 92bb 74ef 82bd 57e9 6e3d a885 f33c
000000f0: 689b 7dbd 40d5 7e3d 7e2e 6e3d cff9 ad3d
00000100: 03ec 5bbd 8628 81bc dc33 f3ba 5935 653c
00000110: 1edf 94bd 9833 8bbd 4c6d 553d 92fe b7bc
00000120: 02a4 3f3d 83ee b23b 6fd1 003d 3489 ac3c
00000130: 3ea6 0e3d e47a 423d 34ab b5bd 4a7a 453d
00000140: 38ed 89bd b101 94bd 51df be3b d1b5 85bc
00000150: 1b6c 663d b435 63bd 9d62 aebd ddc2 8e3d
00000160: f4b2 68bc 99aa 5c3d d740 fc3c 0019 93bd
00000170: 96a2 9d3c 7778 bc3c af57 83bd cc25 3abd
00000180: 04c6 053d 7b8c 8c3c 74e2 26bd c486 edbc
00000190: 82a9 b33d 5c2d 91bc 9f30 5d3d d6e0 293d
000001a0: 239a 7dbd 9ad2 a6bd 634b bc3d 48e3 a33b
000001b0: 1e76 863d b99a a23c 985c fc3c 8886 923d
000001c0: 2501 ba3d 802b 82bd 5235 443c 5063 923d
000001d0: 741b 8e3d 50ba 733d 7cf7 8dbd f741 8dbd
000001e0: 7644 6dbd 1e26 453c 3482 c33d 92d2 77bd
000001f0: 1710 513d c925 59bd 746f b8bd 00c5 a6bc
00000200: f00b 623d d61c b63d 42a6 73bd 3447 aa3c
00000210: d742 a93d edfc 813d a381 743d 5266 8b3d
00000220: 0427 783d 2eac ca3c dd23 86bd baba a4bd
00000230: 8ec5 33bd 26bd 36bc 157a 70bd a688 0f3d
00000240: 0cd7 f23c 3aac b1bc 68c9 163d 5b96 fd3c
00000250: b487 6f3d c81a 843d b6dc 04bd f7a7 bf3d
00000260: 6c6c 35bc eba8 57bb 7927 b9bd d481 7cbd
00000270: b132 65bd 82ce 27bd 3f77 8b3d 6034 00bd
00000280: bb96 92bd 7ff2 163d b238 fb3c 0c1b 7e3d
00000290: 8104 4bbd ca1f aa3c 8fd3 0ebd 934a b0bc
000002a0: 6553 9cbd 85ce 32bd 374e f0bc b6c5 273d
000002b0: f658 8f3c 5fd2 c13c 88ca c33d 892f bf3d
000002c0: d4ca 853d 7de3 473b 2ab4 87bd 9b4d 993d
000002d0: 6c36 c4bc ddbd fdbb 7bfe a8bd b7fd 9abc
000002e0: 970b 7dbd 5441 b43d 3e96 a9bd d1e7 98bd
000002f0: 9926 55bb f522 54bd f360 0c3d 2504 17bd
00000300: 3f45 38bd 62c3 b13b 7a00 8e3d 50fc 89bd
00000310: 143d 383d d60b 7c3d cce2 bf3d e94c 89bd
00000320: dc08 be3c 4e0c 91bd 5c79 a73d 832f 18bd
00000330: 8551 6c3d b3e1 3a3b 6171 f4bb be4a 48bb
00000340: ea62 853c d7f0 383d 40af 7b3c 9a5c ef3c
00000350: 0c74 b0bd 76e9 8e3d fd06 ab3d 3a26 a23d
00000360: 0d02 913d a88e 8dbd 646f 11bd 34f6 ac3d
00000370: ba68 95bd 8cf6 b13d 0248 9abd c42d 8abd
00000380: a5cc 3f3d dbf0 8cbd a0c3 b3bc f5b4 8e3d
00000390: de60 9b3d a985 b93d 2e38 9fbc 3c78 98bd
000003a0: e124 c13d b926 a7bc a36a 21bd 0747 bf3c
000003b0: 752e 89bd 17ef 803d 21e2 753d caa6 9bbd
000003c0: 6b1f a1bd 1d77 09bc 69c9 243d 2acd 35bb
000003d0: 86f0 46bd 2783 0f3b 3861 b8bd e7a3 8abd
000003e0: 6195 82bd c98b a13d 2feb ac3d 8d42 05bd
000003f0: 7ec4 8c3b f5f7 2e3d 9c07 3c3c 4575 44bd
0.049353264 -0.042276368 -0.018568562 0.044957392 -0.090173304 0.057442497 -0.019704912 0.048728827
0.013315412 -0.011728023 0.026566358 0.004725128 0.034982514 -0.03732659 -0.006983393 -0.008623054
0.013883113 -0.0003826346 0.08372999 0.029806608 -0.03567005 -0.057849005 -0.016054668 -0.041314945
-0.030693403 0.004586226 0.057098683 0.05206137 -0.09363239 0.059377614 0.026758207 0.09085514
0.06322227 -0.08727117 -0.09107093 -0.04619904 0.08410785 -0.015954416 0.040991083 -0.04451128
0.093983635 -0.04052548 0.071829766 0.0011342248 -0.05045996 0.049233694 -0.050843347 0.028170122
-0.027657924 -0.010501071 -0.09208428 -0.045667406 0.05197491 -0.023282582 0.095404245 0.07677825
-0.0044848896 -0.06393328 0.058328 0.029726818 -0.061915785 0.06221509 0.058149807 0.08494913
-0.053691875 -0.015766393 -0.0018554884 0.01398977 -0.07269119 -0.0679695 0.052106187 -0.022460256
0.04678727 0.0054605617 0.03144973 0.021061517 0.03482651 0.04748048 -0.08870545 0.048212327
-0.06734699 -0.07226885 0.0058249612 -0.016322048 0.05625544 -0.055471137 -0.08514903 0.06970761
-0.014202822 0.053873632 0.030792637 -0.07182503 0.019242566 0.02300666 -0.06413209 -0.045446202
0.032659546 0.01715683 -0.040743306 -0.028994925 0.087725654 -0.017721824 0.054001447 0.041474186
-0.061914574 -0.08145638 0.091940664 0.0050014593 0.06565498 0.019849168 0.03080587 0.07154566
0.090822496 -0.06355953 0.011975603 0.071478486 0.0693883 0.059503853 -0.069319695 -0.068973474
-0.057926618 0.012033014 0.09546319 -0.06050355 0.051040735 -0.05301455 -0.09005633 -0.020357609
0.055187166 0.08892219 -0.059484728 0.020785905 0.08264702 0.0634707 0.059693944 0.068066254
0.060584083 0.024740305 -0.06549809 -0.08043428 -0.043889575 -0.011153495 -0.058710176 0.035042427
0.029643558 -0.02168857 0.03681317 0.030955484 0.058479026 0.064504206 -0.03243705 0.093582086
-0.011073213 -0.003290708 -0.09040732 -0.06164725 -0.055956546 -0.040968426 0.06809854 -0.03129995
-0.07157656 0.036852356 0.030666683 0.062037513 -0.049564842 0.020767111 -0.034869727 -0.021519935
-0.07633094 -0.043653984 -0.02933417 0.040960036 0.017498475 0.023659883 0.09560114 0.093352385
0.06532827 0.0030500584 -0.066261604 0.07485505 -0.023951732 -0.0077435807 -0.08251663 -0.018919809
-0.06177863 0.08801523 -0.082806095 -0.074660905 -0.0032524227 -0.05179115 0.034272145 -0.036869187
-0.044987913 0.005424903 0.06933685 -0.06737578 0.044980124 0.061534725 0.0936943 -0.067041226
0.023197584 -0.07082425 0.08177444 -0.037154686 0.05769493 0.0028515875 -0.007459805 -0.0030562128
0.016282517 0.045151558 0.015361607 0.02921896 -0.08615884 0.06978123 0.08350942 0.079174474
0.07080469 -0.06911975 -0.03550662 0.08445397 -0.07295366 0.08689603 -0.07533266 -0.0674701
0.046826024 -0.06881877 -0.021943867 0.069681086 0.07586835 0.09058697 -0.019435968 -0.07444808
0.09430862 -0.020404207 -0.039408337 0.023349298 -0.06698314 0.06295603 0.060030106 -0.07600172
-0.078673206 -0.008390215 0.040231142 -0.0027740696 -0.048569225 0.0021898241 -0.09002918 -0.06769543
-0.06376148 0.0788799 0.08443295 -0.03253417 0.0042958846 0.04271694 0.011476424 -0.0479634

fc1.bias f4 [256]
00000000: 4ef1 e73c e0e8 723d a4b2 853d 4695 25bc
00000010: fa0b 9e3d 3a5a 81bd 5003 c03c fd3f 283d
00000020: 1925 b63d 0313 8c3d b837 98bd 7e58 b0bd
00000030: a68c 273d 10b1 c9bc 13f4 4cbd 7659 8bbd
00000040: 296d 04bd 2294 d0bc 8e34 7b3c d076 a4bc
00000050: f648 5dbc 9cb1 e7bc cc82 c23d 3c60 253d
00000060: 01b9 75bd c4b1 38bd f865 c13c aa56 003d
00000070: 0e5a 5cbd 768f 82bd 1608 2cbd a6a3 283d
00000080: 7852 f6bc a93f 7d3d 80d7 5e3d 7368 803d
00000090: 8db0 4a3d 8399 d4bc f98a 3b3d b563 803d
000000a0: 1458 f0bc 751d 73bd 2a62 983d aee2 16bd
000000b0: a182 d0bc 27f1 3d3d 4246 95bd a68d 2a3d
000000c0: 041c fdbc 1004 7a3b d560 813d bff1 d33c
000000d0: 9a01 a3bd aa1d 643d 1483 55bc 3f85 bebd
000000e0: df9c f7bc 06e3 e43b b331 063d 7931 ab3d
000000f0: 2367 3fbb d1fc c03d 48a3 bfbd 78bc 303d
00000100: a355 303d 496c 833d c909 9bbd 4ab9 25bc
00000110: 4ab0 873d 17fc c33c 26e1 c23d 5245 6dbd
00000120: 606d 143d 1bac d03c 8544 82bd 28fb 1bbd
00000130: 89dd 813d 66c2 933d f739 303d 9ef7 ecbc
00000140: 2d2f 903c 1ab1 8ebc 4405 803d 8ce4 4d3d
00000150: 2cce 223d 0e9e b0bd 5d23 8dbc a99e fc3c
00000160: 7cea 0abd 3060 b23d 12e6 753d 0756 003d
00000170: 0db0 b7bc db70 163d 60bc 603d 5f65 f03c
00000180: 7fa6 5ebd 50d6 98bd 67ff b5bc 2c04 643d
00000190: 0e84 28bd aa17 7bbd 3701 d4bc 44c6 70bd
000001a0: 5794 933d 7b7a 983d 18d0 503c a4c7 4cbd
000001b0: ff1f 4fbd 5e82 a93d c436 2f3c 1bf9 b6bd
000001c0: 26af af3d fb68 57bc 5d7d 01bc 08ce b7bc
000001d0: 07dd ad3d 4a9d 5b3c 8c0d 4c3c 6322 7ebc
000001e0: 13c5 853d 9333 acbb 8055 95bd 84df 21bd
000001f0: 07e8 8c3d 1be3 98bd 321c e23c 4e9b 4c3d
00000200: 2ee1 303d a64c 9ebc fd8d 0bbd bde1 afbc
00000210: 99cc 9ebd a564 c63b 788e b3bd b435 ccbc
00000220: 1d35 85bd 4c6d 693c a23e b1bd ca88 563d
00000230: 20f2 983d 3e0b 983d dca5 84bd b89d 9bbb
00000240: 2649 bc3c e9b4 66bc 29c0 02bd c2eb b6bd
00000250: 9f50 25bd 4a91 4e3d ad0a 4d3d 6637 a6bd
00000260: d292 78bd 378c 83bd c13e 08bd edb9 69bd
00000270: b8fb e6bc 7098 3eb9 8072 d3bb 52c8 d33c
00000280: f5dc d13b f6a3 28bc 6d88 b03c c59d 1f3d
00000290: f9b1 e0bc 5b66 b23d 2896 b6bd 5204 793a
000002a0: 358e c2bd c4ee 933d 79b1 d9bc 8f43 41bb
000002b0: 3489 b83d f922 2a3d d1de 1fbd 00c3 82bd
000002c0: e839 643d f9c4 8dbc 3ce8 a23b e2b4 1a3d
000002d0: 2b5c 56bc 076f 86bd c3c5 383d 959b 393d
000002e0: c9e5 88bc e839 093c ec30 a8bd f5e7 a5bc
000002f0: 0fee 4fbd 3553 ecbc e308 87bd 43b5 4bbd
00000300: 5825 aaba 6d61 2f3d 4c27 9d3d 985c bb3d
00000310: 01ff 993d 4c53 833c 4873 b0bd 94e5 0aba
00000320: 83fc c8bc 0e65 57bd da64 733c 0f34 7e3b
00000330: 2628 86bd 969e 73bd 2d97 c03c ff19 173d
00000340: 2eec a33d 67aa 4bbd 3c0b 273d aada 633d
00000350: a40d 433d c190 af3d a7d5 a1bc 6025 64bc
00000360: 626f 62bd 7461 25bd 8199 793d 7f70 b83d
00000370: 8fc7 213d d1e1 8fbd 88c6 2d3c 92ee 8c3d
00000380: 9f12 933b a650 c2bd 7137 5cbd 5c3c 7b3c
00000390: ae37 383c cb02 9dbd 5ccf 4abd df16 f73c
000003a0: ecba 173b 3214 0abc 1032 b43c 3c6a 4a3d
000003b0: 2d73 97bd a53b 403d 9304 a93d 5d74 9cbd
000003c0: 23a7 11bd 0f92 d33c 55c9 bfbd 8ce9 24bd
000003d0: 05d8 c0bc 4399 7dbd 83c6 5fbd 4514 55bd
000003e0: 83dd 5b3d 3f50 9e3d ad4e fa3b 29f0 393d
000003f0: f091 81bd 9a41 8b3d 0a57 99bd 27f4 133d
0.028313305 0.05930412 0.065282136 -0.01010639 0.07717128 -0.063160375 0.02343908 0.04107665
0.088937946 0.06839564 -0.074325025 -0.086106285 0.040905617 -0.024620563 -0.050037455 -0.06804173
-0.032330666 -0.02546126 0.015332354 -0.020076185 -0.013506165 -0.028282933 0.09497604 0.04037498
-0.059990887 -0.045091406 0.023608193 0.03133265 -0.05379682 -0.06375019 -0.0419999 0.041171692
-0.030068621 0.06182829 0.054404736 0.06269922 0.04948478 -0.025952106 0.04578683 0.062690176
-0.029338874 -0.059354264 0.07440598 -0.036837272 -0.025452914 0.04637256 -0.07288791 0.041638993
-0.030897148 0.0038149394 0.06317297 0.02587211 -0.0795929 0.055692352 -0.01303174 -0.093027584
-0.03022617 0.006985071 0.03276224 0.083590455 -0.0029205761 0.09423221 -0.09357315 0.043148488
0.04305042 0.06417138 -0.07570226 -0.010114977 0.06625421 0.023923917 0.095156 -0.057927437
0.03623712 0.025472691 -0.06360725 -0.03808132 0.063410826 0.07214813 0.04302403 -0.028926667
0.01760062 -0.017418433 0.06251004 0.050266787 0.039747402 -0.086238965 -0.017228777 0.030837374
-0.033915028 0.087097526 0.060033865 0.031332042 -0.022422815 0.03672872 0.05486715 0.029345213
-0.054358 -0.07462752 -0.022216512 0.05566804 -0.041141562 -0.061301865 -0.025879486 -0.05878283
0.07206028 0.07445236 0.012744926 -0.04999508 -0.050567623 0.08276819 0.0106942095 -0.08934232
0.08578329 -0.013147588 -0.007903424 -0.02243711 0.08489423 0.0134042 0.012454402 -0.015511128
0.065317295 -0.0052551716 -0.072916985 -0.0395198 0.06880193 -0.07465192 0.027601335 0.049952798
0.043183498 -0.019323658 -0.034070957 -0.021469945 -0.07753868 0.006054478 -0.08767408 -0.024927951
-0.06504271 0.01424725 -0.086545244 0.052376546 0.07468057 0.07424019 -0.06476948 -0.004749026
0.022984099 -0.014081218 -0.03192154 -0.08931686 -0.04036009 0.050431527 0.05005901 -0.08116035
-0.060686894 -0.06423228 -0.03326297 -0.05706208 -0.0281962 -0.000181766 -0.0064528584 0.025852356
0.006404514 -0.010292998 0.021549428 0.03896882 -0.027428614 0.08710929 -0.08915359 0.000949924
-0.0949978 0.07223275 -0.026573883 -0.002948973 0.090105444 0.04153726 -0.039030854 -0.063848495
0.055719286 -0.017305838 0.004971532 0.03777016 -0.013083498 -0.065641455 0.045110475 0.04531439
-0.016711133 0.008375622 -0.08212456 -0.020252207 -0.05076414 -0.02884827 -0.06593492 -0.04973341
-0.00129811 0.04281752 0.07673511 0.0914852 0.07519341 0.01603093 -0.08615738 -0.0005298492
-0.02453447 -0.052586608 0.014855588 0.0038788354 -0.065506265 -0.05947741 0.023509586 0.036890026
0.08004032 -0.049723055 0.0407822 0.055628456 0.04762043 0.085725315 -0.019755198 -0.0139249265
-0.055282004 -0.04037614 0.06093741 0.09005832 0.039496955 -0.07025493 0.010606416 0.06881441
0.004488304 -0.09488039 -0.05376381 0.015334215 0.011243744 -0.07666548 -0.04951416 0.030162273
0.0023152186 -0.0084276665 0.021996528 0.04941772 -0.07395015 0.04693188 0.082528256 -0.07639382
-0.035559785 0.025826482 -0.09364573 -0.04026179 -0.023540506 -0.06191374 -0.054632675 -0.052021284
0.053678047 0.077301495 0.0076387734 0.04539505 -0.063266635 0.06799622 -0.074873045 0.036121514

fc2.weight f4 [256, 256]
00000000: 7023 f63b b895 d43c c4ab f03c 9200 243d
00000010: 3a41 66bd c0d2 6abb 5494 7b3d 06ba 67bd
00000020: f46f e13c f071 c8bb 2042 f7bb 225c 27bd
00000030: 18a4 5fbc 9ea0 173d 9c48 efbc bc8a 96bc
00000040: 2201 053d 06c2 0fbd 4294 5cbd 40d1 7c3d
00000050: 9e6f 683d 5eac 1d3d 7029 c7bc bc6d c13c
00000060: 00d7 cdbc eed7 333d ec2e d73c a82e 453d
00000070: 0409 1dbd b03f 32bc 68a2 babc d8a4 de3c
00000080: b4fe bdbc fac6 4c3d d852 30bd 2811 653d
00000090: 4662 40bd 828e 6a3d 6202 173d 9410 363d
000000a0: 0090 cd39 640d b33c d835 963c 3089 75bc
000000b0: 02ac 643d d80a 503d 5076 6cbd 44bd f73c
000000c0: 404f 5b3b f049 0f3d b077 363d 3455 efbc
000000d0: 502c 3fbc 021d 5cbd 5cb5 92bc 7623 143d
000000e0: 9a19 3b3d ae64 3ebd dc06 45bd 6e5f 153d
000000f0: 8025 0cbd 90cc c53c 88f5 5ebc 6a33 5c3d
00000100: ac54 fe3c 98f7 5dbc 8ae0 06bd 207e 75bc
00000110: 2064 8d3b 9ab7 0c3d 30f3 cfbb 966f 1c3d
00000120: 003f 9c39 04a9 6f3d 38e8 173d 2ea0 52bd
00000130: 644e 51bd 1849 573d 881a 6c3c d058 7a3c
00000140: 86e1 0abd 8457 ddbc 6071 fbbb d00e c9bc
00000150: 7856 9abc 04de 283d 8a9b 0c3d ba09 673d
00000160: 308b 273d 6cc3 26bd 9e80 60bd 14c2 2c3d
00000170: 9c8c 66bd 1c44 5e3d 8086 cfba a027 073c
00000180: 4035 b33a 781d b6bc 4a8b 0ebd a000 413b
00000190: d865 d0bc 3254 153d 52c1 24bd e01f 5c3d
000001a0: 903e 4abd 7c69 243d 9009 18bc 54ba 1f3d
000001b0: 1880 553d 8675 6e3d 643a e03c 4089 4bbb
000001c0: 3a60 333d 3e55 0fbd 88a3 b53c 60ef 2a3d
000001d0: 5a2d 0fbd 0e31 513d 88eb 953c e02f 5abb
000001e0: 2880 32bc 04c5 853c d0a6 fdbc b896 1cbd
000001f0: 8006 843c 5c32 73bd 349a b7bc c01a 393b
00000200: d0cf ffbc 46fc 233d 2a8e 5ebd 10e2 dcbb
00000210: 5442 1cbd 9024 b53b c666 45bd 0047 233d
00000220: c441 6f3d c0b6 e6ba 82aa 023d da05 4dbd
00000230: c6cf 08bd 68f3 57bc 78f1 90bc 305c bebb
00000240: 0a4a 193d 2cf0 a93c 54f5 b53c 8e1e 3a3d
00000250: 46a2 233d 22d0 0abd c4f6 00bd f4f5 a43c
00000260: acfb 343d 22a1 3ebd 407d 853a 584a b73c
00000270: 4e20 41bd a860 1d3d 508c 44bc 323d 563d
00000280: 66ef 2cbd 4c5d 53bd 30cd c6bc 20a3 343c
00000290: 34f0 80bc c8b1 993c 820b 283d 2087 67bc
000002a0: fcca 0a3d 28b3 7fbd 8812 0b3d 52d6 7cbd
000002b0: 22cf 533d 6818 cc3c ec67 0fbd 4421 3e3d
000002c0: 70f3 f93b 121d 083d ca4c 4fbd fc2f 923c
000002d0: b0d4 ecbb 1c4b 11bd 2050 83bb 1edf 393d
000002e0: b8da 98bc 8084 623c 7802 f43c 7cf1 4f3d
000002f0: 3c2a 90bc 40ff 0fbd a00f 273b 6cb5 a93c
00000300: b02b a0bb 9c9e aabc 00f7 e9ba ecdb 093d
00000310: 32f4 7abd c435 ee3c cceb b73c bcd6 2dbd
00000320: c0e0 6dbd c09e 173c 266f 593d 384e aabc
00000330: 687e 3e3c bad9 6e3d 5aec 17bd e0b3 47bb
00000340: 9e7f 46bd 5002 6d3d 3011 afbb d81b 0abd
00000350: a2b8 3ebd cc91 d7bc 125f 733d f0cc e7bb
00000360: fc02 1e3d 0015 1bbd 0401 953c 8ca7 fbbc
00000370: 987b 5e3c f61c 0bbd a013 38bb e263 373d
00000380: 4455 243d d020 d7bc 9480 16bd 5c90 05bd
00000390: e699 6fbd 482c 0cbd 685c 763c becf 19bd
000003a0: 5029 3ebc 047d 1abd e62c 15bd 8a30 0d3d
000003b0: d0a9 e13b 3413 413d 4c62 3c3d f0fa 11bc
000003c0: e207 193d 3895 663d e662 133d 68ae 203c
000003d0: 1432 00bd 3e66 3b3d 007b 2fba 940f aabc
000003e0: 5c06 643d 3c89 e9bc 9401 fabc 5841 edbc
000003f0: 28fd 99bc f416 863c 98a8 2c3d ecea 943c
0.0075115487 0.025950298 0.02937878 0.040039606 -0.05621455 -0.0035831183 0.061420754 -0.05657389
0.027519204 -0.006117098 -0.0075457245 -0.04085935 -0.013649963 0.03701841 -0.029209428 -0.0183767
0.032471783 -0.035097145 -0.053852327 0.061722994 0.05674707 0.03849446 -0.024311751 0.023611896
-0.025126934 0.0439071 0.026267491 0.048140198 -0.038338676 -0.010879442 -0.02278252 0.027178213
-0.023192741 0.049994446 -0.043047756 0.055924565 -0.04696872 0.057264812 0.036867507 0.044449404
0.00039207935 0.021856971 0.018336222 -0.014986321 0.055828102 0.05079159 -0.05773002 0.030241616
0.0033463985 0.03498262 0.044547737 -0.029215433 -0.01166828 -0.0537386 -0.017908745 0.03616663
0.045678712 -0.046482734 -0.048102245 0.036467962 -0.03421545 0.024145395 -0.013608344 0.05375997
0.031046234 -0.0135478005 -0.03292898 -0.014983684 0.0043149143 0.034354784 -0.006346129 0.038192354
0.00029801577 0.058510795 0.037086695 -0.05142229 -0.05110015 0.052559942 0.014410622 0.015279964
-0.033906482 -0.02701927 -0.0076734275 -0.024543196 -0.01884006 0.041227356 0.03432802 0.05640576
0.040904224 -0.040713713 -0.05481016 0.042177275 -0.05628644 0.054264173 -0.0015832931 0.008249193
0.0013672486 -0.022230849 -0.034800805 0.0029449835 -0.025439188 0.036457248 -0.040223427 0.053741336
-0.04937607 0.04013966 -0.009279624 0.038996056 0.052124113 0.058217548 0.027371593 -0.003105715
0.04379294 -0.034993403 0.022172704 0.041732192 -0.03495536 0.051072173 0.018300787 -0.0033292696
-0.010894813 0.016329296 -0.030963331 -0.038229674 0.01611638 -0.0593742 -0.022412397 0.0028244704
-0.031227022 0.04003551 -0.054334797 -0.006740816 -0.038149193 0.00552804 -0.048193716 0.039862633
0.05841233 -0.0017602071 0.03190089 -0.05005441 -0.033401273 -0.013180591 -0.017693266 -0.0058093295
0.037424125 0.020744406 0.022211708 0.045439295 0.039949678 -0.033889897 -0.031485334 0.02013681
0.044185326 -0.046540387 0.0010184422 0.022374317 -0.04714995 0.038422257 -0.011996344 0.052304454
-0.042220496 -0.051602647 -0.024267763 0.01102522 -0.015739538 0.01876153 0.0410266 -0.014131337
0.033884987 -0.062426716 0.03395322 -0.06172783 0.05171121 0.024913982 -0.035011217 0.046418443
0.007627897 0.03323085 -0.05061034 0.017845146 -0.0072275028 -0.03547202 -0.0040073544 0.045378797
-0.01865898 0.013825536 0.029786333 0.050767407 -0.017598264 -0.035155535 0.002549149 0.020716392
-0.0048880205 -0.020827584 -0.0017850101 0.033657 -0.06126804 0.029078372 0.022451304 -0.042441115
-0.058075666 0.009254158 0.053084515 -0.02078925 0.011626817 0.05831311 -0.037090637 -0.0030472204
-0.04846155 0.057863533 -0.005342625 -0.03371796 -0.0465628 -0.026314639 0.059416838 -0.007073991
0.038577065 -0.037861824 0.01818896 -0.030719541 0.013579272 -0.033963166 -0.002808787 0.04477299
0.040120378 -0.026260763 -0.036743715 -0.032608375 -0.05849638 -0.034221917 0.01503668 -0.037551634
-0.011606529 -0.03771688 -0.03641977 0.03447012 0.0068866983 0.047137454 0.04599218 -0.008909926
0.037361033 0.05629465 0.03598299 0.009807207 -0.03129776 0.045751803 -0.00066940486 -0.020759381
0.055670127 -0.028507821 -0.03051833 -0.028961822 -0.018797472 0.016368367 0.04215297 0.018178426

fc2.bias f4 [256]
00000000: a873 8c3c d078 bd3b 64f4 d0bc 4094 fe3b
00000010: b807 4a3c 1023 8b3b 24f0 853c 20fb 4b3d
00000020: be41 373d 403b 9c3b acd2 ce3c 88bc 453d
00000030: 4033 2abd 707d dfbc 0c4d d53c 9049 f63b
00000040: 1a20 34bd 70e4 24bc 722b 2c3d 10b2 513c
00000050: dcab be3c b4ef 90bc cec7 793d 2cfc 033d
00000060: ecca f0bc f4cb 333d ac0d 69bd 9cf4 85bc
00000070: 8c01 e1bc c27b 43bd 867c 7b3d 4097 adbb
00000080: 64e8 ddbc cc7f 783d 7cb0 11bd 2066 5f3b
00000090: 9c2c dc3c d88f 173c 60db 243d f8d0 a7bc
000000a0: 0084 2f3a 12e9 053d 4065 cfbc 9af2 313d
000000b0: c2ea 1cbd 2c76 f23c dcfe 85bc 80af dfbc
000000c0: 00f5 adb9 6261 3ebd 4607 0b3d 00b9 423a
000000d0: ec33 023d 006f 943b c47c 89bc 40a4 de3a
000000e0: 9a61 4f3d 200a 8cbb 5c94 9fbc 30ff 45bd
000000f0: f065 a43c c4d2 2f3d 5c6f a9bc 78c1 e13c
00000100: f0c6 513d 4835 25bd 8837 cfbc 90be 95bb
00000110: f09b 0dbd 4ea7 08bd 481f 5e3c 9216 543d
00000120: e6c6 213d d81a 343c 3e91 7dbd 4a0c 293d
00000130: 60ea 573d d2da 04bd e4a9 bb3c 8056 263a
00000140: 4e28 1e3d 7497 72bd 3ee2 783d 80b4 ef3a
00000150: daf1 363d a456 6cbd 70f2 e4bb dee4 5d3d
00000160: ac6b d23c 102b 223c ee00 2bbd 52f2 013d
00000170: 105d 3e3d 30c9 9ebb 1221 1dbd 103e 58bc
00000180: a6b6 6ebd 9066 e8bc 70a4 18bc c02b 44bc
00000190: 502c d8bc 721d 1e3d ec75 ee3c 20f3 603c
000001a0: bcbf 5ebd 20bd c0bb b4dd b03c c406 03bd
000001b0: c46c 7d3d 049f 2fbd a0fc 99bb 20ac e4bc
000001c0: dc4d 233d 4078 ed3a acee 573d 7e0b 613d
000001d0: a45b ccbc 007d 313b f0fa 90bc f6ef 3dbd
000001e0: bab8 6fbd c072 95bc 3cca 393d 8c1c 80bc
000001f0: 9857 b7bc 78b9 2c3d 0058 78b8 6844 17bc
00000200: 00bc 85b8 2425 9f3c 84e2 0fbd 3c34 c83c
00000210: 020c 72bd 5e4b 61bd f86f 10bc 1ca2 a93c
00000220: ae0e 3b3d 7c11 f0bc b8bb 253c 542a d6bc
00000230: ee95 28bd 6ca3 24bd 00d4 5c3d 8c76 673d
00000240: 007d 95ba 609e e7bc 0a41 11bd ac1b 843c
00000250: 14b1 8cbc 24cf e9bc 6a8a 25bd dc3f 1dbd
00000260: 3204 583d 72ed 1ebd a202 73bd 3837 6abd
00000270: 14bd 12bd a0ce 5c3c 90af abbc 4667 39bd
00000280: eefb 6c3d 50f5 23bc 10cd 043d 0019 92bc
00000290: d4d0 fe3c e25a 6d3d fc27 6d3d 4090 663c
000002a0: 3031 7f3c 90da febc 4420 2ebd 7ad0 403d
000002b0: 981b 12bd a028 68bb 76f5 39bd 9031 ccbb
000002c0: dc41 733d 72b3 5ebd d0c5 d2bb fc48 b93c
000002d0: d0f9 f4bc d050 2cbd ee7d 743d 70a5 59bd
000002e0: 6837 8bbc 381d 503d 7ca4 20bd b012 6bbc
000002f0: e85d 2cbd e4e9 9ebc aad5 2a3d aeda 26bd
00000300: 6c7e 6dbd f0d4 2bbc 0e26 4e3d 0e44 23bd
00000310: 98d0 423c d4e8 16bd 34a2 0ebd b269 5fbd
00000320: 4cee 033d 00ee f4ba 8c98 6cbd ee79 35bd
00000330: 8c9a 213d 7c5a 04bd 40b1 be3b a4cc d73c
00000340: c87c 45bd 6069 bdbb fa41 17bd a647 50bd
00000350: 086b bdbc 9487 253d a8e6 f9bc 8899 8dbc
00000360: d005 eabb 64fa 743d 5007 fc3c b625 783d
00000370: f26f 61bd b6f0 083d 2477 2e3d 20db b5bb
00000380: 12d9 6ebd 40fe 273c 76e8 0fbd d835 a6bc
00000390: 7079 843c 826a 5e3d 8832 4f3d d806 523d
000003a0: 748e 74bd 8883 34bd a02d 12bb 9afe 243d
000003b0: 5494 923c 50e6 03bc b00c d73c e027 0bbc
000003c0: b0b5 873c 6c35 4cbd b03d 62bd 4848 5cbd
000003d0: 7a08 4fbd a09c 79bd c0b7 353c 9002 ddbc
000003e0: 2823 d1bc b08f 683d 8010 ba3b bac8 52bd
000003f0: 80a3 ea3b e0a9 01bb 7ce7 2dbd 20da 4fbd
0.017144993 0.0057822242 -0.02550716 0.0077691376 0.012330942 0.004246123 0.01634986 0.04980004
0.04474043 0.0047678053 0.02524694 0.0482755 -0.041552782 -0.027281493 0.026037715 0.0075160936
-0.043975927 -0.010064229 0.04203362 0.012798801 0.023275308 -0.017692424 0.060981564 0.03222291
-0.029393636 0.043895677 -0.056897804 -0.01635199 -0.027466558 -0.047725447 0.06139805 -0.0052975714
-0.027088352 0.06066875 -0.0355687 0.003408797 0.02687674 0.009250604 0.040248275 -0.020485386
0.000669539 0.032692976 -0.025316834 0.043444254 -0.03830982 0.029597364 -0.016356878 -0.027305365
-0.0003317967 -0.04647959 0.033942483 0.000742808 0.031787798 0.004529834 -0.016783126 0.0016986206
0.05063019 -0.004273668 -0.019479923 -0.04833907 0.020068139 0.04292561 -0.020682983 0.027558073
0.051215112 -0.040334016 -0.025295034 -0.004569836 -0.03457254 -0.03336268 0.013557263 0.051779337
0.039496325 0.010992728 -0.061906092 0.041271485 0.05271375 -0.032435246 0.022908159 0.0006345287
0.038612656 -0.05922647 0.060762636 0.0018288046 0.04466424 -0.057699814 -0.0069869086 0.054173343
0.025686108 0.009897962 -0.041748933 0.031725235 0.04647547 -0.0048457608 -0.038361616 -0.013198391
-0.058279656 -0.028369218 -0.009316549 -0.011973321 -0.026388317 0.0386023 0.029108964 0.0137298405
-0.05438207 -0.0058819205 0.021590091 -0.031988874 0.061871305 -0.04287626 -0.0046993047 -0.027914107
0.039869174 0.0018117502 0.05271785 0.0549426 -0.024946041 0.0027082562 -0.017697781 -0.046371423
-0.05852578 -0.018243194 0.04535888 -0.015638612 -0.022380635 0.042169064 -5.9209764e-05 -0.009232618
-6.376952e-05 0.01942689 -0.03512813 0.02443897 -0.059093483 -0.055003516 -0.008815758 0.020707183
0.045668297 -0.029305212 0.010115556 -0.02614323 -0.04115861 -0.040194914 0.053913116 0.05650954
-0.0011405051 -0.028273761 -0.035462417 0.016126476 -0.017174281 -0.028541155 -0.040415205 -0.03839098
0.052738376 -0.038800664 -0.059328683 -0.057181567 -0.03582485 0.013476998 -0.020957738 -0.045264505
0.057857446 -0.0100072175 0.032422125 -0.017834187 0.031105436 0.057948 0.05789946 0.014072478
0.015575692 -0.031110078 -0.04251124 0.04707382 -0.035670847 -0.0035424605 -0.045400105 -0.0062314942
0.05938898 -0.05437035 -0.0064322725 0.02261781 -0.029904276 -0.042069256 0.05969041 -0.05313629
-0.016994193 0.050809115 -0.039219365 -0.014347717 -0.042081743 -0.019398637 0.041707672 -0.040735893
-0.057981893 -0.01048778 0.05032926 -0.039859824 0.011890553 -0.036843136 -0.034822658 -0.05454416
0.03220968 -0.0018686652 -0.057762668 -0.044305734 0.039454028 -0.032312855 0.0058194697 0.026342697
-0.048214704 -0.005780384 -0.036928155 -0.05084958 -0.023122326 0.0404125 -0.030505493 -0.017285123
-0.007141806 0.059809104 0.030765206 0.06058284 -0.0550384 0.033432685 0.04259409 -0.0055498034
-0.058312483 0.010253489 -0.0351338 -0.020289347 0.016171187 0.054300793 0.0505853 0.051276058
-0.059706166 -0.04407075 -0.0022305027 0.04028187 0.017892994 -0.008050516 0.026251167 -0.008493394
0.016566128 -0.049855635 -0.05523461 -0.05377987 -0.050545193 -0.060940385 0.011091173 -0.026978761
-0.02552946 0.056777656 0.0056782365 -0.05146096 0.007160604 -0.0019785091 -0.04245709 -0.05074513

fc3.weight f4 [2, 256]
00000000: 68dc ddbc 5a19 6dbd 54c2 1e3d c2c0 49bd
00000010: 6039 41bc 4850 c83c 62e8 5ebd f2ba 583d
00000020: 30f0 e33b ec0f 103d 0025 363c 16c0 2c3d
00000030: f40e 473d 68ff 6cbc b0e7 fcbb cc65 0e3d
00000040: 4a6d 60bd 3013 c43b 9044 95bc 5092 9a3c
00000050: 7e96 30bd a083 443d 981f 1a3d e006 283d
00000060: f646 773d 1801 d8bc 4e9f 6a3d 78e8 c03c
00000070: 54e4 933c 0272 533d e09e eb3b 00c6 743c
00000080: 9809 263c 004a 27ba e84d 20bc 5ae7 6cbd
00000090: dcd3 ebbc e4bd ac3c 684b 6b3d a81f cbbc
000000a0: 76ca 69bd 5c3b 5bbd 62f3 5f3d 98c4 e5bc
000000b0: d052 2f3d d8c2 9dbc baac 2bbd 0880 76bc
000000c0: 3ed7 0abd d083 2e3d 6ce1 983c ce62 68bd
000000d0: 2653 01bd b023 49bd 52b8 48bd deed 023d
000000e0: cc78 02bd 2025 373d 24a3 91bc c06d 29bb
000000f0: 7894 823c b4dc 64bd e853 f0bc 989c 72bd
00000100: 00ea 6ebc d8bf 47bc 8000 abba 00d4 c43a
00000110: c01c ccbb c437 7ebd 70a8 6c3d c4d3 e33c
00000120: 580a 323d 247e 53bd b09d a43c 9282 7cbd
00000130: e0cc 173b 86f9 1cbd 4098 993c 766f 23bd
00000140: c0f2 75bc c23e 103d 8aba 40bd 2077 7bbd
00000150: fc7d f23c c4cc 61bd 08d1 163d 8e88 033d
00000160: 8a6d 4cbd dc23 64bd 94cf 75bd d2fa 0b3d
00000170: 6032 7e3d 50db 593c 94a7 723d 1222 5dbd
00000180: 6804 9a3c 202b 293d c071 f6bb e028 6ebd
00000190: 3c47 dabc 604a 51bd 801e 43bc 38bb 8abc
000001a0: 00da 7b3a d818 4a3c 8819 d33c 9ca9 89bc
000001b0: 9017 f83b 18f0 75bc e80a 213c 1c00 bc3c
000001c0: 3017 bcbc 00f9 81bb d87a 06bd a428 6ebd
000001d0: e4f8 0fbd 0038 72b9 f821 863c da63 2c3d
000001e0: d0cb 5f3c c083 453c 40d6 42bc 9482 74bd
000001f0: f018 e2bc 0e84 67bd 3a6e 2dbd c0ae b6ba
00000200: f896 fabc 5e74 0ebd a883 7d3d 60b7 ed3c
00000210: 32cf 483d 3c8c 5a3d 34b2 543d cc8d 2bbd
00000220: 0c8f 7a3d 8e40 6abd 78e7 4bbc 8e60 00bd
00000230: 620b 67bd bc6b 99bc 5cb7 d0bc 3403 33bd
00000240: 40df 01bd c4fb 18bd 6a1c 553d 6ec3 453d
00000250: 503a bcbc 20fc fabb f8bd a9bc 409a 74bc
00000260: 00b7 6bbd d811 633d 40b4 61bd 8014 2c3a
00000270: f45e e33c 7807 313d f201 5bbd 3255 0ebd
00000280: b427 24bd 58c0 f2bc a847 803c 204b 73bc
00000290: 9e72 2ebd 981a 3dbd 8899 6abd 1065 dc3c
000002a0: c8c3 2dbd 1825 023c 22fc 1a3d 5e3e 3cbd
000002b0: de66 063d 80f4 023a b016 d0bc 60c6 9ebc
000002c0: 3a20 34bd 5e18 273d 600c f73c 50b6 66bc
000002d0: a81f d13c 5afb 09bd 54f6 cdbc 5e1d 60bd
000002e0: c0e6 d93b de13 053d d0d1 bf3b bade 33bd
000002f0: 30d5 fcbb ec70 f5bc dc16 203d d4ea d63c
00000300: 74c2 c9bc 2494 99bc 868d 2dbd 00a1 033d
00000310: d831 51bd 4073 423d 74cf 0abd c453 c53c
00000320: b4cd 01bd 427d 033d c812 62bd e0f3 1a3b
00000330: a2d6 4e3d d490 a5bc c0c3 793c 80ae 3abc
00000340: 04f0 6cbd 58b7 253d 06ff 2b3d 0020 13bb
00000350: ecae 11bd 4815 12bd 405e c63a 98a5 b8bc
00000360: f43a 84bc 1c78 fc3c b812 0abc 543b ecbc
00000370: d6bb 223d f63b 063d 7091 d9bc f848 173c
00000380: e409 353d a66d 7e3d d208 063d 9275 513d
00000390: bcd2 5a3d 103f 173d 20d7 a63b fea2 213d
000003a0: 72f4 123d 0cb1 68bd 10d9 54bc 74cc a83c
000003b0: 00e6 6439 6618 3c3d eedc 6ebd 9849 ce3c
000003c0: ece5 ba3c 5cc7 83bc 4895 1fbd 702a 6abd
000003d0: fe5f 61bd 3086 23bc 6463 473d 540d fbbc
000003e0: 5621 2cbd 784e 583d acf6 ac3c d052 0d3c
000003f0: 6c0d cb3c 5614 37bd 02e5 623d a864 3cbd
-0.027082637 -0.057885505 0.038759544 -0.049256094 -0.011793464 0.024452344 -0.054420836 0.05291266
0.006956123 0.035171434 0.01111722 0.042175375 0.048598245 -0.0144651905 -0.007718049 0.03476505
-0.054791726 0.0059837326 -0.01822117 0.018868595 -0.04311227 0.04797709 0.037627786 0.04102218
0.060370408 -0.026367709 0.05728083 0.02354835 0.018053211 0.0516224 0.0071905702 0.014939785
0.010134123 -0.00063815713 -0.009784199 -0.05783782 -0.028787546 0.02108664 0.05744496 -0.024795368
-0.057077847 -0.053523406 0.054675467 -0.028047845 0.042803586 -0.019257948 -0.04191277 -0.0150451735
-0.033896677 0.042606175 0.018662177 -0.056734852 -0.031573437 -0.0491063 -0.049003907 0.03196513
-0.031853482 0.04471314 -0.017777987 -0.002585277 0.015939936 -0.05587454 -0.029336885 -0.05923137
-0.014582157 -0.012191735 -0.0013046414 0.0015016794 -0.006229013 -0.0620649 0.057777822 0.027810939
0.043466896 -0.05163397 0.020094723 -0.06164796 0.0023162887 -0.0383239 0.018749356 -0.03990122
-0.015011489 0.0352161 -0.047052898 -0.061392903 0.02960109 -0.05512692 0.03682044 0.03211265
-0.049909152 -0.05569826 -0.060012415 0.034174748 0.06205976 0.013296917 0.059241846 -0.05398757
0.01880093 0.041300893 -0.0075208843 -0.05814445 -0.026645295 -0.05109632 -0.011909127 -0.016934976
0.00096073747 0.012335025 0.02576901 -0.016804509 0.0075711682 -0.015010856 0.00982926 0.02294927
-0.022960275 -0.0039664507 -0.032831997 -0.058144227 -0.03514947 -0.0002309978 0.01637362 0.042087413
0.0136594325 0.012055337 -0.0118919015 -0.05969484 -0.027599782 -0.05652242 -0.04234145 -0.0013937578
-0.030589566 -0.034778945 0.061893135 0.029018104 0.04902572 0.053356394 0.05192776 -0.041883275
0.061171576 -0.05719047 -0.012445323 -0.03134208 -0.05640734 -0.01872813 -0.025478058 -0.043704227
-0.03170705 -0.037349477 0.05202905 0.04828208 -0.022977024 -0.00765945 -0.020720467 -0.014929354
-0.05754757 0.05543694 -0.05510354 0.0006564334 0.027755238 0.043220013 -0.053468652 -0.034749217
-0.040076926 -0.029632732 0.015659168 -0.014849454 -0.042589776 -0.04616794 -0.057275325 0.02690366
-0.04242304 0.007943414 0.03783811 -0.045957915 0.032812946 0.000499554 -0.025401443 -0.019381702
-0.043976046 0.040794723 0.030157268 -0.014081553 0.02552779 -0.033686973 -0.025141872 -0.054715507
0.006649822 0.03248965 0.005853869 -0.04391358 -0.0077158436 -0.029961072 0.0390843 0.026235022
-0.024628855 -0.018747397 -0.042371295 0.032135963 -0.051072925 0.047473192 -0.03388925 0.024087794
-0.031690314 0.032101877 -0.055193692 0.0023643896 0.05049766 -0.020210661 0.015244424 -0.011394143
-0.057846084 0.040458053 0.041991256 -0.0022449493 -0.03556721 -0.035664827 0.001513429 -0.022539899
-0.016141392 0.030818991 -0.008427314 -0.028836884 0.039729916 0.032772027 -0.026558608 0.009233706
0.044198886 0.062116288 0.032723255 0.051137514 0.05342363 0.036925375 0.005091563 0.039462082
0.035877652 -0.05680947 -0.012991205 0.020605303 0.00021829456 0.045921706 -0.058316164 0.025181577
0.022814713 -0.016086273 -0.038960725 -0.057169378 -0.055023186 -0.009980723 0.04867877 -0.030646004
-0.04202398 0.05280921 0.021113716 0.008625701 0.024786673 -0.04469713 0.05539418 -0.04599443

fc3.bias f4 [2]
00000000: cee4 583d a0e9 0abd
0.05295258 -0.03391421
